workspace/jh_fpga_amr/src/py/models/output_rtl/vgglike_3f_3c_2re_2mp_pr0_quant8.onnx/intermediate_models/step_hw_codegen.onnx (onnx, 3339 bytes, 1 tensors)

MatMul_0_param0 f4 [6, 32]
00000000: 0000 5842 0000 d042 0000 b442 0000 bcc2
00000010: 0000 ca42 0000 9042 0000 68c2 0000 c042
00000020: 0000 d242 0000 88c1 0000 9cc2 0000 e2c2
00000030: 0000 5842 0000 e0c1 0000 b4c2 0000 c040
00000040: 0000 7cc2 0000 50c1 0000 60c2 0000 4040
00000050: 0000 a841 0000 6041 0000 1cc2 0000 a041
00000060: 0000 4040 0000 9642 0000 0442 0000 3442
00000070: 0000 0040 0000 96c2 0000 80c0 0000 c842
00000080: 0000 00c1 0000 14c2 0000 d2c2 0000 3cc2
00000090: 0000 dc42 0000 a642 0000 6042 0000 24c2
000000a0: 0000 eec2 0000 c2c2 0000 6041 0000 5c42
000000b0: 0000 0442 0000 dcc2 0000 86c2 0000 c8c2
000000c0: 0000 a042 0000 f4c2 0000 fe42 0000 803f
000000d0: 0000 68c2 0000 fcc2 0000 8040 0000 2cc2
000000e0: 0000 0000 0000 14c2 0000 8642 0000 8242
000000f0: 0000 0040 0000 d841 0000 803f 0000 8e42
00000100: 0000 a842 0000 30c2 0000 a442 0000 9242
00000110: 0000 9242 0000 a6c2 0000 74c2 0000 acc2
00000120: 0000 00c0 0000 3c42 0000 8ac2 0000 c841
00000130: 0000 80bf 0000 0cc2 0000 6042 0000 8442
00000140: 0000 3041 0000 e041 0000 a642 0000 8ec2
00000150: 0000 c8c2 0000 4041 0000 d2c2 0000 40c1
00000160: 0000 b842 0000 f442 0000 e6c2 0000 b8c2
00000170: 0000 e040 0000 d841 0000 f442 0000 30c1
00000180: 0000 8041 0000 2cc2 0000 ae42 0000 80c1
00000190: 0000 b0c1 0000 9841 0000 7cc2 0000 f442
000001a0: 0000 b0c2 0000 10c2 0000 10c2 0000 aa42
000001b0: 0000 82c2 0000 c642 0000 a0c2 0000 9a42
000001c0: 0000 94c2 0000 fc42 0000 04c2 0000 9842
000001d0: 0000 40c1 0000 9ac2 0000 1442 0000 bc42
000001e0: 0000 b4c2 0000 e4c2 0000 b2c2 0000 aac2
000001f0: 0000 0040 0000 5842 0000 4040 0000 80c2
00000200: 0000 8c42 0000 0042 0000 dac2 0000 ecc2
00000210: 0000 c0c1 0000 44c2 0000 eac2 0000 20c2
00000220: 0000 10c2 0000 9e42 0000 c841 0000 c842
00000230: 0000 bec2 0000 e0c0 0000 5042 0000 6842
00000240: 0000 9842 0000 2041 0000 9cc2 0000 8ec2
00000250: 0000 d842 0000 c0c1 0000 6c42 0000 d8c1
00000260: 0000 acc2 0000 44c2 0000 92c2 0000 8442
00000270: 0000 c040 0000 9ac2 0000 7442 0000 3042
00000280: 0000 9c42 0000 b242 0000 9ec2 0000 88c1
00000290: 0000 c8c2 0000 74c2 0000 00c0 0000 5442
000002a0: 0000 d8c2 0000 f0c1 0000 e842 0000 b2c2
000002b0: 0000 ce42 0000 3042 0000 a041 0000 a442
000002c0: 0000 c242 0000 4cc2 0000 3842 0000 90c2
000002d0: 0000 a4c2 0000 3842 0000 e841 0000 e4c2
000002e0: 0000 b4c2 0000 3842 0000 e0c1 0000 24c2
000002f0: 0000 f4c2 0000 f8c1 0000 7842 0000 9242
54.0 104.0 90.0 -94.0 101.0 72.0 -58.0 96.0
105.0 -17.0 -78.0 -113.0 54.0 -28.0 -90.0 6.0
-63.0 -13.0 -56.0 3.0 21.0 14.0 -39.0 20.0
3.0 75.0 33.0 45.0 2.0 -75.0 -4.0 100.0
-8.0 -37.0 -105.0 -47.0 110.0 83.0 56.0 -41.0
-119.0 -97.0 14.0 55.0 33.0 -110.0 -67.0 -100.0
80.0 -122.0 127.0 1.0 -58.0 -126.0 4.0 -43.0
0.0 -37.0 67.0 65.0 2.0 27.0 1.0 71.0
84.0 -44.0 82.0 73.0 73.0 -83.0 -61.0 -86.0
-2.0 47.0 -69.0 25.0 -1.0 -35.0 56.0 66.0
11.0 28.0 83.0 -71.0 -100.0 12.0 -105.0 -12.0
92.0 122.0 -115.0 -92.0 7.0 27.0 122.0 -11.0
16.0 -43.0 87.0 -16.0 -22.0 19.0 -63.0 122.0
-88.0 -36.0 -36.0 85.0 -65.0 99.0 -80.0 77.0
-74.0 126.0 -33.0 76.0 -12.0 -77.0 37.0 94.0
-90.0 -114.0 -89.0 -85.0 2.0 54.0 3.0 -64.0
70.0 32.0 -109.0 -118.0 -24.0 -49.0 -117.0 -40.0
-36.0 79.0 25.0 100.0 -95.0 -7.0 52.0 58.0
76.0 10.0 -78.0 -71.0 108.0 -24.0 59.0 -27.0
-86.0 -49.0 -73.0 66.0 6.0 -77.0 61.0 44.0
78.0 89.0 -79.0 -17.0 -100.0 -61.0 -2.0 53.0
-108.0 -30.0 116.0 -89.0 103.0 44.0 20.0 82.0
97.0 -51.0 46.0 -72.0 -82.0 46.0 29.0 -114.0
-90.0 46.0 -28.0 -41.0 -122.0 -31.0 62.0 73.0
