workspace/jh_fpga_amr/src/py/models/output_rtl/vgglike_3f_3c_2re_2mp_pr0.1_quant6.onnx/intermediate_models/step_specialize_layers.onnx (onnx, 10878 bytes, 2 tensors)

MultiThreshold_1_param0 f4 [32, 63]
00000000: 0080 9543 0080 a343 0000 b143 0000 bf43
00000010: 0000 cd43 0080 da43 0080 e843 0080 f643
00000020: 0000 0244 0000 0944 0000 1044 00c0 1644
00000030: 00c0 1d44 0080 2444 0080 2b44 0080 3244
00000040: 0040 3944 0040 4044 0040 4744 0000 4e44
00000050: 0000 5544 00c0 5b44 00c0 6244 00c0 6944
00000060: 0080 7044 0080 7744 0080 7e44 00a0 8244
00000070: 0020 8644 0080 8944 0000 8d44 0080 9044
00000080: 00e0 9344 0060 9744 00e0 9a44 0040 9e44
00000090: 00c0 a144 0040 a544 00a0 a844 0020 ac44
000000a0: 0080 af44 0000 b344 0080 b644 00e0 b944
000000b0: 0060 bd44 00e0 c044 0040 c444 00c0 c744
000000c0: 0020 cb44 00a0 ce44 0020 d244 0080 d544
000000d0: 0000 d944 0080 dc44 00e0 df44 0060 e344
000000e0: 00c0 e644 0040 ea44 00c0 ed44 0020 f144
000000f0: 00a0 f444 0020 f844 0080 fb44 0000 7c43
00000100: 0000 8c43 0080 9943 0080 a743 0080 b543
00000110: 0000 c343 0000 d143 0080 de43 0080 ec43
00000120: 0080 fa43 0000 0444 0000 0b44 0000 1244
00000130: 00c0 1844 00c0 1f44 00c0 2644 0080 2d44
00000140: 0080 3444 0040 3b44 0040 4244 0040 4944
00000150: 0000 5044 0000 5744 0000 5e44 00c0 6444
00000160: 00c0 6b44 0080 7244 0080 7944 0040 8044
00000170: 00a0 8344 0020 8744 00a0 8a44 0000 8e44
00000180: 0080 9144 00e0 9444 0060 9844 00e0 9b44
00000190: 0040 9f44 00c0 a244 0040 a644 00a0 a944
000001a0: 0020 ad44 0080 b044 0000 b444 0080 b744
000001b0: 00e0 ba44 0060 be44 00e0 c144 0040 c544
000001c0: 00c0 c844 0040 cc44 00a0 cf44 0020 d344
000001d0: 0080 d644 0000 da44 0080 dd44 00e0 e044
000001e0: 0060 e444 00e0 e744 0040 eb44 00c0 ee44
000001f0: 0020 f244 00a0 f544 0000 b043 0000 be43
00000200: 0000 cc43 0080 d943 0080 e743 0000 f543
00000210: 0080 0144 0080 0844 0040 0f44 0040 1644
00000220: 0040 1d44 0000 2444 0000 2b44 00c0 3144
00000230: 00c0 3844 00c0 3f44 0080 4644 0080 4d44
00000240: 0080 5444 0040 5b44 0040 6244 0040 6944
00000250: 0000 7044 0000 7744 00c0 7d44 0060 8244
00000260: 00e0 8544 0040 8944 00c0 8c44 0040 9044
00000270: 00a0 9344 0020 9744 0080 9a44 0000 9e44
00000280: 0080 a144 00e0 a444 0060 a844 00e0 ab44
00000290: 0040 af44 00c0 b244 0020 b644 00a0 b944
000002a0: 0020 bd44 0080 c044 0000 c444 0080 c744
000002b0: 00e0 ca44 0060 ce44 00e0 d144 0040 d544
000002c0: 00c0 d844 0020 dc44 00a0 df44 0020 e344
000002d0: 0080 e644 0000 ea44 0080 ed44 00e0 f044
000002e0: 0060 f444 00c0 f744 0040 fb44 00c0 fe44
000002f0: 0010 0145 0000 bf43 0080 cc43 0080 da43
00000300: 0080 e843 0000 f643 0000 0244 00c0 0844
00000310: 00c0 0f44 00c0 1644 0080 1d44 0080 2444
00000320: 0080 2b44 0040 3244 0040 3944 0000 4044
00000330: 0000 4744 0000 4e44 00c0 5444 00c0 5b44
00000340: 00c0 6244 0080 6944 0080 7044 0040 7744
00000350: 0040 7e44 00a0 8244 0000 8644 0080 8944
00000360: 0000 8d44 0060 9044 00e0 9344 0040 9744
00000370: 00c0 9a44 0040 9e44 00a0 a144 0020 a544
00000380: 00a0 a844 0000 ac44 0080 af44 0000 b344
00000390: 0060 b644 00e0 b944 0040 bd44 00c0 c044
000003a0: 0040 c444 00a0 c744 0020 cb44 00a0 ce44
000003b0: 0000 d244 0080 d544 00e0 d844 0060 dc44
000003c0: 00e0 df44 0040 e344 00c0 e644 0040 ea44
000003d0: 00a0 ed44 0020 f144 0080 f444 0000 f844
000003e0: 0080 fb44 00e0 fe44 0030 0145 00f0 0245
000003f0: 0000 e8c1 0000 80bf 0000 d041 0000 5842
299.0 327.0 354.0 382.0 410.0 437.0 465.0 493.0
520.0 548.0 576.0 603.0 631.0 658.0 686.0 714.0
741.0 769.0 797.0 824.0 852.0 879.0 907.0 935.0
962.0 990.0 1018.0 1045.0 1073.0 1100.0 1128.0 1156.0
1183.0 1211.0 1239.0 1266.0 1294.0 1322.0 1349.0 1377.0
1404.0 1432.0 1460.0 1487.0 1515.0 1543.0 1570.0 1598.0
1625.0 1653.0 1681.0 1708.0 1736.0 1764.0 1791.0 1819.0
1846.0 1874.0 1902.0 1929.0 1957.0 1985.0 2012.0 252.0
280.0 307.0 335.0 363.0 390.0 418.0 445.0 473.0
501.0 528.0 556.0 584.0 611.0 639.0 667.0 694.0
722.0 749.0 777.0 805.0 832.0 860.0 888.0 915.0
943.0 970.0 998.0 1026.0 1053.0 1081.0 1109.0 1136.0
1164.0 1191.0 1219.0 1247.0 1274.0 1302.0 1330.0 1357.0
1385.0 1412.0 1440.0 1468.0 1495.0 1523.0 1551.0 1578.0
1606.0 1634.0 1661.0 1689.0 1716.0 1744.0 1772.0 1799.0
1827.0 1855.0 1882.0 1910.0 1937.0 1965.0 352.0 380.0
408.0 435.0 463.0 490.0 518.0 546.0 573.0 601.0
629.0 656.0 684.0 711.0 739.0 767.0 794.0 822.0
850.0 877.0 905.0 933.0 960.0 988.0 1015.0 1043.0
1071.0 1098.0 1126.0 1154.0 1181.0 1209.0 1236.0 1264.0
1292.0 1319.0 1347.0 1375.0 1402.0 1430.0 1457.0 1485.0
1513.0 1540.0 1568.0 1596.0 1623.0 1651.0 1679.0 1706.0
1734.0 1761.0 1789.0 1817.0 1844.0 1872.0 1900.0 1927.0
1955.0 1982.0 2010.0 2038.0 2065.0 382.0 409.0 437.0
465.0 492.0 520.0 547.0 575.0 603.0 630.0 658.0
686.0 713.0 741.0 768.0 796.0 824.0 851.0 879.0
907.0 934.0 962.0 989.0 1017.0 1045.0 1072.0 1100.0
1128.0 1155.0 1183.0 1210.0 1238.0 1266.0 1293.0 1321.0
1349.0 1376.0 1404.0 1432.0 1459.0 1487.0 1514.0 1542.0
1570.0 1597.0 1625.0 1653.0 1680.0 1708.0 1735.0 1763.0
1791.0 1818.0 1846.0 1874.0 1901.0 1929.0 1956.0 1984.0
2012.0 2039.0 2067.0 2095.0 -29.0 -1.0 26.0 54.0

MatMul_0_param0 f4 [6, 32]
00000000: 0000 9841 0000 0000 0000 80bf 0000 803f
00000010: 0000 80c0 0000 c040 0000 c040 0000 e040
00000020: 0000 a8c1 0000 8841 0000 a841 0000 3041
00000030: 0000 c041 0000 50c1 0000 0000 0000 40c0
00000040: 0000 80bf 0000 e0c0 0000 20c1 0000 f841
00000050: 0000 0040 0000 0040 0000 803f 0000 a040
00000060: 0000 c040 0000 0041 0000 e8c1 0000 80bf
00000070: 0000 e0c0 0000 4040 0000 7041 0000 4041
00000080: 0000 70c1 0000 0000 0000 c841 0000 80c0
00000090: 0000 a0c0 0000 4041 0000 4041 0000 60c1
000000a0: 0000 c0c0 0000 e0c0 0000 b0c1 0000 6041
000000b0: 0000 a8c1 0000 2041 0000 0000 0000 c040
000000c0: 0000 a040 0000 60c1 0000 4041 0000 c841
000000d0: 0000 c041 0000 40c0 0000 0040 0000 e040
000000e0: 0000 4041 0000 a040 0000 f841 0000 e040
000000f0: 0000 0040 0000 30c1 0000 b8c1 0000 8040
00000100: 0000 20c1 0000 0000 0000 80c0 0000 f8c1
00000110: 0000 a040 0000 7041 0000 0040 0000 2041
00000120: 0000 88c1 0000 20c1 0000 50c1 0000 30c1
00000130: 0000 5041 0000 9041 0000 0000 0000 00c1
00000140: 0000 90c1 0000 10c1 0000 b0c1 0000 0000
00000150: 0000 0000 0000 0040 0000 00c0 0000 c8c1
00000160: 0000 20c1 0000 d841 0000 803f 0000 8040
00000170: 0000 0041 0000 3041 0000 8040 0000 9041
00000180: 0000 803f 0000 0000 0000 20c1 0000 f8c1
00000190: 0000 0000 0000 20c1 0000 1041 0000 8841
000001a0: 0000 70c1 0000 2041 0000 80c0 0000 80c1
000001b0: 0000 c0c0 0000 98c1 0000 0000 0000 a040
000001c0: 0000 80bf 0000 803f 0000 30c1 0000 e040
000001d0: 0000 a0c1 0000 a0c0 0000 0000 0000 9841
000001e0: 0000 9041 0000 c041 0000 8040 0000 e0c0
000001f0: 0000 0040 0000 c8c1 0000 8841 0000 803f
00000200: 0000 b0c1 0000 0000 0000 98c1 0000 0000
00000210: 0000 0000 0000 8841 0000 00c1 0000 80bf
00000220: 0000 60c1 0000 10c1 0000 e0c0 0000 0040
00000230: 0000 0000 0000 0041 0000 0000 0000 b041
00000240: 0000 9041 0000 b0c1 0000 20c1 0000 803f
00000250: 0000 803f 0000 b041 0000 f841 0000 c0c0
00000260: 0000 3041 0000 00c0 0000 80bf 0000 88c1
00000270: 0000 b8c1 0000 803f 0000 a040 0000 00c1
00000280: 0000 4041 0000 0000 0000 a040 0000 00c0
00000290: 0000 0041 0000 a040 0000 98c1 0000 e040
000002a0: 0000 20c1 0000 e0c0 0000 c040 0000 8040
000002b0: 0000 00c0 0000 00c1 0000 0000 0000 7041
000002c0: 0000 0040 0000 98c1 0000 2041 0000 80bf
000002d0: 0000 40c1 0000 3041 0000 f841 0000 e0c0
000002e0: 0000 a841 0000 80c0 0000 80bf 0000 5041
000002f0: 0000 80c0 0000 80bf 0000 0041 0000 b0c1
19.0 0.0 -1.0 1.0 -4.0 6.0 6.0 7.0
-21.0 17.0 21.0 11.0 24.0 -13.0 0.0 -3.0
-1.0 -7.0 -10.0 31.0 2.0 2.0 1.0 5.0
6.0 8.0 -29.0 -1.0 -7.0 3.0 15.0 12.0
-15.0 0.0 25.0 -4.0 -5.0 12.0 12.0 -14.0
-6.0 -7.0 -22.0 14.0 -21.0 10.0 0.0 6.0
5.0 -14.0 12.0 25.0 24.0 -3.0 2.0 7.0
12.0 5.0 31.0 7.0 2.0 -11.0 -23.0 4.0
-10.0 0.0 -4.0 -31.0 5.0 15.0 2.0 10.0
-17.0 -10.0 -13.0 -11.0 13.0 18.0 0.0 -8.0
-18.0 -9.0 -22.0 0.0 0.0 2.0 -2.0 -25.0
-10.0 27.0 1.0 4.0 8.0 11.0 4.0 18.0
1.0 0.0 -10.0 -31.0 0.0 -10.0 9.0 17.0
-15.0 10.0 -4.0 -16.0 -6.0 -19.0 0.0 5.0
-1.0 1.0 -11.0 7.0 -20.0 -5.0 0.0 19.0
18.0 24.0 4.0 -7.0 2.0 -25.0 17.0 1.0
-22.0 0.0 -19.0 0.0 0.0 17.0 -8.0 -1.0
-14.0 -9.0 -7.0 2.0 0.0 8.0 0.0 22.0
18.0 -22.0 -10.0 1.0 1.0 22.0 31.0 -6.0
11.0 -2.0 -1.0 -17.0 -23.0 1.0 5.0 -8.0
12.0 0.0 5.0 -2.0 8.0 5.0 -19.0 7.0
-10.0 -7.0 6.0 4.0 -2.0 -8.0 0.0 15.0
2.0 -19.0 10.0 -1.0 -12.0 11.0 31.0 -7.0
21.0 -4.0 -1.0 13.0 -4.0 -1.0 8.0 -22.0
