workspace/jh_fpga_amr/src/py/models/output_estimates/vgglike_5f_5c_4re_4mp_pr0.3_quant8.onnx/intermediate_models/step_minimize_bit_width.onnx (onnx, 2455 bytes, 1 tensors)

MatMul_0_param0 f4 [6, 32]
0	0xc22c0000	-43.0
1	0x42380000	46.0
2	0xc2a20000	-81.0
3	0xc1700000	-15.0
4	0x41500000	13.0
5	0x3f800000	1.0
6	0x42240000	41.0
7	0xc2b40000	-90.0
8	0xc2780000	-62.0
9	0xc2fe0000	-127.0
10	0xc0a00000	-5.0
11	0x41900000	18.0
12	0x40a00000	5.0
13	0xc2180000	-38.0
14	0xc1100000	-9.0
15	0xc2880000	-68.0
16	0xc1700000	-15.0
17	0xc1000000	-8.0
18	0xc1500000	-13.0
19	0x42c60000	99.0
20	0xbf800000	-1.0
21	0xc2940000	-74.0
22	0xc2440000	-49.0
23	0xc2440000	-49.0
24	0xc2340000	-45.0
25	0x41a00000	20.0
26	0xc2c00000	-96.0
27	0x41600000	14.0
28	0xc2bc0000	-94.0
29	0x42ba0000	93.0
30	0x42480000	50.0
31	0x42960000	75.0
32	0x42ae0000	87.0
33	0x42380000	46.0
34	0xc2ca0000	-101.0
35	0x41500000	13.0
36	0x40e00000	7.0
37	0x00000000	0.0
38	0xc1b00000	-22.0
39	0xc2ac0000	-86.0
40	0xc2ce0000	-103.0
41	0x41e80000	29.0
42	0x40c00000	6.0
43	0x40400000	3.0
44	0x3f800000	1.0
45	0xc24c0000	-51.0
46	0xc0800000	-4.0
47	0xc2820000	-65.0
48	0x41300000	11.0
49	0x41000000	8.0
50	0x42c60000	99.0
51	0x42b00000	88.0
52	0x41400000	12.0
53	0xc2180000	-38.0
54	0xc1300000	-11.0
55	0xc1000000	-8.0
56	0x42e20000	113.0
57	0x42b60000	91.0
58	0xc2700000	-60.0
59	0xc2860000	-67.0
60	0x42540000	53.0
61	0xc2e20000	-113.0
62	0xc2440000	-49.0
63	0xc2300000	-44.0
64	0x42980000	76.0
65	0x42ec0000	118.0
66	0xc1100000	-9.0
67	0xc1300000	-11.0
68	0xc1000000	-8.0
69	0xc0000000	-2.0
70	0xc2340000	-45.0
71	0x42ae0000	87.0
72	0xc2240000	-41.0
73	0x42240000	41.0
74	0x40e00000	7.0
75	0xbf800000	-1.0
76	0xbf800000	-1.0
77	0xc2900000	-72.0
78	0x41200000	10.0
79	0xc2700000	-60.0
80	0xc0800000	-4.0
81	0xc0a00000	-5.0
82	0x42e60000	115.0
83	0x41c00000	24.0
84	0x40400000	3.0
85	0x42a00000	80.0
86	0x42c60000	99.0
87	0x42b00000	88.0
88	0x41800000	16.0
89	0xc1e80000	-29.0
90	0x42c60000	99.0
91	0xc1100000	-9.0
92	0x41c00000	24.0
93	0xc2a60000	-83.0
94	0xc1300000	-11.0
95	0x42080000	34.0
96	0xc2c00000	-96.0
97	0x42820000	65.0
98	0x42820000	65.0
99	0xc0000000	-2.0
100	0xc1100000	-9.0
101	0x41b80000	23.0
102	0xc2a60000	-83.0
103	0x41200000	10.0
104	0xc2400000	-48.0
105	0xc2e60000	-115.0
106	0x41200000	10.0
107	0xc1700000	-15.0
108	0x40800000	4.0
109	0x42d00000	104.0
110	0x41980000	19.0
111	0xc28e0000	-71.0
112	0x41700000	15.0
113	0x41000000	8.0
114	0x42a40000	82.0
115	0xc2640000	-57.0
116	0x40400000	3.0
117	0x429a0000	77.0
118	0xc2ba0000	-93.0
119	0xc2180000	-38.0
120	0xc2a80000	-84.0
121	0x42740000	61.0
122	0x429a0000	77.0
123	0xc1980000	-19.0
124	0x41b80000	23.0
125	0x42a00000	80.0
126	0xc2d40000	-106.0
127	0x42300000	44.0
128	0xc27c0000	-63.0
129	0xc2200000	-40.0
130	0x42a80000	84.0
131	0x40a00000	5.0
132	0xc1600000	-14.0
133	0xc0400000	-3.0
134	0x42a80000	84.0
135	0xc2b00000	-88.0
136	0xc2540000	-53.0
137	0x42080000	34.0
138	0xc1500000	-13.0
139	0xc1800000	-16.0
140	0x40000000	2.0
141	0x42da0000	109.0
142	0x41600000	14.0
143	0x42b40000	90.0
144	0xc1100000	-9.0
145	0xc1300000	-11.0
146	0x42bc0000	94.0
147	0x40800000	4.0
148	0xc1800000	-16.0
149	0xc2e40000	-114.0
150	0xc2d40000	-106.0
151	0x42e00000	112.0
152	0x41700000	15.0
153	0x42b40000	90.0
154	0xc0000000	-2.0
155	0xc2e00000	-112.0
156	0x421c0000	39.0
157	0x427c0000	63.0
158	0x42dc0000	110.0
159	0x42c40000	98.0
160	0xc2300000	-44.0
161	0xc2a00000	-80.0
162	0x42d20000	105.0
163	0x40800000	4.0
164	0xc1400000	-12.0
165	0xc1a00000	-20.0
166	0x427c0000	63.0
167	0x42900000	72.0
168	0xc2be0000	-95.0
169	0xc2280000	-42.0
170	0x00000000	0.0
171	0x00000000	0.0
172	0xc1500000	-13.0
173	0x42ce0000	103.0
174	0xc1200000	-10.0
175	0xc2780000	-62.0
176	0xc1500000	-13.0
177	0x3f800000	1.0
178	0x42f00000	120.0
179	0xc2040000	-33.0
180	0x40c00000	6.0
181	0x42880000	68.0
182	0xc2ae0000	-87.0
183	0xc2d00000	-104.0
184	0xc2c60000	-99.0
185	0xc2840000	-66.0
186	0x40c00000	6.0
187	0x42b40000	90.0
188	0x42dc0000	110.0
189	0x42040000	33.0
190	0xc2b00000	-88.0
191	0xc2ba0000	-93.0
