workspace/jh_fpga_amr/src/py/models/output_estimates/vgglike_4f_4c_3re_3mp_pr0.3_quant8.onnx/intermediate_models/step_generate_estimate_reports.onnx (onnx, 2504 bytes, 1 tensors)

MatMul_0_param0 f4 [6, 32]
000000 00 00 82 c2 00 00 0c c2 00 00 78 c2 00 00 20 41
       -65.0 -35.0 -62.0 10.0
000010 00 00 a6 42 00 00 14 42 00 00 be c2 00 00 a0 40
       83.0 37.0 -95.0 5.0
000020 00 00 1c 42 00 00 ac 42 00 00 40 c2 00 00 00 40
       39.0 86.0 -48.0 2.0
000030 00 00 50 42 00 00 f0 c1 00 00 00 00 00 00 c2 42
       52.0 -30.0 0.0 97.0
000040 00 00 00 00 00 00 ce 42 00 00 8a c2 00 00 60 c2
       0.0 103.0 -69.0 -56.0
000050 00 00 a0 40 00 00 20 42 00 00 9e c2 00 00 90 42
       5.0 40.0 -79.0 72.0
000060 00 00 78 c2 00 00 a0 40 00 00 e0 c0 00 00 10 c1
       -62.0 5.0 -7.0 -9.0
000070 00 00 aa c2 00 00 50 c1 00 00 94 42 00 00 aa c2
       -85.0 -13.0 74.0 -85.0
000080 00 00 ac 42 00 00 50 42 00 00 da 42 00 00 b8 c1
       86.0 52.0 109.0 -23.0
000090 00 00 92 42 00 00 0c 42 00 00 40 c0 00 00 00 40
       73.0 35.0 -3.0 2.0
0000a0 00 00 04 42 00 00 9e c2 00 00 b4 c2 00 00 80 bf
       33.0 -79.0 -90.0 -1.0
0000b0 00 00 00 42 00 00 40 42 00 00 80 bf 00 00 9e c2
       32.0 48.0 -1.0 -79.0
0000c0 00 00 70 41 00 00 30 42 00 00 a0 c0 00 00 28 c2
       15.0 44.0 -5.0 -42.0
0000d0 00 00 20 c1 00 00 4c 42 00 00 30 41 00 00 08 c2
       -10.0 51.0 11.0 -34.0
0000e0 00 00 64 c2 00 00 30 41 00 00 80 c1 00 00 30 c1
       -57.0 11.0 -16.0 -11.0
0000f0 00 00 ce c2 00 00 e0 c0 00 00 60 c1 00 00 00 c2
       -103.0 -7.0 -14.0 -32.0
000100 00 00 70 42 00 00 bc c2 00 00 3c c2 00 00 a0 c0
       60.0 -94.0 -47.0 -5.0
000110 00 00 74 c2 00 00 96 c2 00 00 ac 42 00 00 40 41
       -61.0 -75.0 86.0 12.0
000120 00 00 bc 42 00 00 74 42 00 00 ce 42 00 00 00 40
       94.0 61.0 103.0 2.0
000130 00 00 c0 41 00 00 e0 c1 00 00 00 00 00 00 b8 c2
       24.0 -28.0 0.0 -92.0
000140 00 00 00 c1 00 00 48 42 00 00 be 42 00 00 e8 c1
       -8.0 50.0 95.0 -29.0
000150 00 00 a0 40 00 00 9a 42 00 00 98 c1 00 00 c2 42
       5.0 77.0 -19.0 97.0
000160 00 00 54 c2 00 00 00 41 00 00 80 c0 00 00 80 bf
       -53.0 8.0 -4.0 -1.0
000170 00 00 a0 41 00 00 80 3f 00 00 82 42 00 00 90 42
       20.0 1.0 65.0 72.0
000180 00 00 d0 c2 00 00 8a 42 00 00 08 c2 00 00 00 40
       -104.0 69.0 -34.0 2.0
000190 00 00 b8 42 00 00 a0 c1 00 00 ce c2 00 00 40 c0
       92.0 -20.0 -103.0 -3.0
0001a0 00 00 ba 42 00 00 58 42 00 00 9e 42 00 00 80 40
       93.0 54.0 79.0 4.0
0001b0 00 00 98 c2 00 00 20 c2 00 00 60 c1 00 00 a0 c2
       -76.0 -40.0 -14.0 -80.0
0001c0 00 00 10 41 00 00 74 42 00 00 a0 42 00 00 6c c2
       9.0 61.0 80.0 -59.0
0001d0 00 00 50 c1 00 00 a8 c2 00 00 da 42 00 00 28 c2
       -13.0 -84.0 109.0 -42.0
0001e0 00 00 e0 c1 00 00 00 40 00 00 a0 c0 00 00 80 c0
       -28.0 2.0 -5.0 -4.0
0001f0 00 00 20 c1 00 00 40 41 00 00 b4 42 00 00 90 42
       -10.0 12.0 90.0 72.0
000200 00 00 60 c1 00 00 90 c1 00 00 96 42 00 00 60 41
       -14.0 -18.0 75.0 14.0
000210 00 00 9a c2 00 00 78 42 00 00 60 41 00 00 00 00
       -77.0 62.0 14.0 0.0
000220 00 00 30 c2 00 00 ae c2 00 00 68 42 00 00 60 41
       -44.0 -87.0 58.0 14.0
000230 00 00 38 42 00 00 6c 42 00 00 00 00 00 00 30 c2
       46.0 59.0 0.0 -44.0
000240 00 00 40 40 00 00 c0 42 00 00 aa c2 00 00 c2 c2
       3.0 96.0 -85.0 -97.0
000250 00 00 10 41 00 00 c8 c2 00 00 ca 42 00 00 28 c2
       9.0 -100.0 101.0 -42.0
000260 00 00 b2 c2 00 00 70 c1 00 00 00 c1 00 00 40 40
       -89.0 -15.0 -8.0 3.0
000270 00 00 be c2 00 00 00 c1 00 00 a6 42 00 00 2c 42
       -95.0 -8.0 83.0 43.0
000280 00 00 54 42 00 00 ce 42 00 00 50 41 00 00 40 41
       53.0 103.0 13.0 12.0
000290 00 00 1c 42 00 00 bc c2 00 00 58 c2 00 00 40 c0
       39.0 -94.0 -54.0 -3.0
0002a0 00 00 ac c2 00 00 80 40 00 00 00 40 00 00 00 40
       -86.0 4.0 2.0 2.0
0002b0 00 00 86 42 00 00 8a c2 00 00 00 00 00 00 10 41
       67.0 -69.0 0.0 9.0
0002c0 00 00 b8 c1 00 00 b8 42 00 00 80 3f 00 00 1c 42
       -23.0 92.0 1.0 39.0
0002d0 00 00 18 42 00 00 34 42 00 00 a2 c2 00 00 50 c2
       38.0 45.0 -81.0 -52.0
0002e0 00 00 50 42 00 00 c0 c0 00 00 88 c1 00 00 40 c1
       52.0 -6.0 -17.0 -12.0
0002f0 00 00 a4 42 00 00 80 c1 00 00 fe c2 00 00 80 3f
       82.0 -16.0 -127.0 1.0
