workspace/jh_fpga_amr/src/py/models/output_rtl/vgglike_4f_4c_3re_3mp_pr0.1_quant8.onnx/intermediate_models/step_apply_folding_config.onnx (onnx, 2430 bytes, 1 tensors)

MatMul_0_param0 f4 [6, 32]
4.0 -17.0 -55.0 72.0 5.0 -52.0 -66.0 106.0
113.0 -67.0 -44.0 57.0 -29.0 -80.0 4.0 -11.0
-4.0 63.0 71.0 -45.0 50.0 83.0 -75.0 -62.0
29.0 32.0 -77.0 63.0 -37.0 33.0 116.0 64.0
-32.0 -15.0 -33.0 29.0 10.0 6.0 63.0 47.0
-9.0 40.0 -34.0 40.0 23.0 34.0 18.0 -5.0
23.0 27.0 1.0 64.0 -35.0 -66.0 -66.0 -107.0
119.0 -35.0 34.0 -62.0 18.0 97.0 66.0 80.0
63.0 89.0 -43.0 111.0 10.0 -102.0 -107.0 -46.0
-96.0 -119.0 -49.0 -90.0 -17.0 -28.0 3.0 10.0
89.0 127.0 38.0 -46.0 13.0 8.0 -87.0 -50.0
-3.0 21.0 34.0 57.0 -68.0 117.0 -1.0 -57.0
84.0 -84.0 56.0 94.0 -7.0 -72.0 -117.0 -112.0
0.0 74.0 11.0 35.0 51.0 -31.0 -1.0 4.0
98.0 78.0 112.0 -105.0 -80.0 -1.0 36.0 124.0
-87.0 -84.0 -34.0 93.0 46.0 61.0 -30.0 5.0
102.0 80.0 45.0 -49.0 -18.0 29.0 -8.0 44.0
-68.0 37.0 -80.0 -40.0 -113.0 -50.0 10.0 15.0
96.0 -107.0 6.0 -113.0 82.0 -53.0 -14.0 42.0
-77.0 13.0 -98.0 43.0 105.0 -57.0 90.0 -51.0
-40.0 -91.0 88.0 -91.0 -11.0 -70.0 50.0 -107.0
-7.0 -101.0 87.0 3.0 -117.0 115.0 -24.0 -5.0
-23.0 88.0 19.0 -74.0 87.0 74.0 -25.0 97.0
-92.0 91.0 61.0 21.0 -27.0 -9.0 -67.0 56.0
00000000: 0000 8040 0000 88c1 0000 5cc2 0000 9042
00000010: 0000 a040 0000 50c2 0000 84c2 0000 d442
00000020: 0000 e242 0000 86c2 0000 30c2 0000 6442
00000030: 0000 e8c1 0000 a0c2 0000 8040 0000 30c1
00000040: 0000 80c0 0000 7c42 0000 8e42 0000 34c2
00000050: 0000 4842 0000 a642 0000 96c2 0000 78c2
00000060: 0000 e841 0000 0042 0000 9ac2 0000 7c42
00000070: 0000 14c2 0000 0442 0000 e842 0000 8042
00000080: 0000 00c2 0000 70c1 0000 04c2 0000 e841
00000090: 0000 2041 0000 c040 0000 7c42 0000 3c42
000000a0: 0000 10c1 0000 2042 0000 08c2 0000 2042
000000b0: 0000 b841 0000 0842 0000 9041 0000 a0c0
000000c0: 0000 b841 0000 d841 0000 803f 0000 8042
000000d0: 0000 0cc2 0000 84c2 0000 84c2 0000 d6c2
000000e0: 0000 ee42 0000 0cc2 0000 0842 0000 78c2
000000f0: 0000 9041 0000 c242 0000 8442 0000 a042
00000100: 0000 7c42 0000 b242 0000 2cc2 0000 de42
00000110: 0000 2041 0000 ccc2 0000 d6c2 0000 38c2
00000120: 0000 c0c2 0000 eec2 0000 44c2 0000 b4c2
00000130: 0000 88c1 0000 e0c1 0000 4040 0000 2041
00000140: 0000 b242 0000 fe42 0000 1842 0000 38c2
00000150: 0000 5041 0000 0041 0000 aec2 0000 48c2
00000160: 0000 40c0 0000 a841 0000 0842 0000 6442
00000170: 0000 88c2 0000 ea42 0000 80bf 0000 64c2
00000180: 0000 a842 0000 a8c2 0000 6042 0000 bc42
00000190: 0000 e0c0 0000 90c2 0000 eac2 0000 e0c2
000001a0: 0000 0000 0000 9442 0000 3041 0000 0c42
000001b0: 0000 4c42 0000 f8c1 0000 80bf 0000 8040
000001c0: 0000 c442 0000 9c42 0000 e042 0000 d2c2
000001d0: 0000 a0c2 0000 80bf 0000 1042 0000 f842
000001e0: 0000 aec2 0000 a8c2 0000 08c2 0000 ba42
000001f0: 0000 3842 0000 7442 0000 f0c1 0000 a040
00000200: 0000 cc42 0000 a042 0000 3442 0000 44c2
00000210: 0000 90c1 0000 e841 0000 00c1 0000 3042
00000220: 0000 88c2 0000 1442 0000 a0c2 0000 20c2
00000230: 0000 e2c2 0000 48c2 0000 2041 0000 7041
00000240: 0000 c042 0000 d6c2 0000 c040 0000 e2c2
00000250: 0000 a442 0000 54c2 0000 60c1 0000 2842
00000260: 0000 9ac2 0000 5041 0000 c4c2 0000 2c42
00000270: 0000 d242 0000 64c2 0000 b442 0000 4cc2
00000280: 0000 20c2 0000 b6c2 0000 b042 0000 b6c2
00000290: 0000 30c1 0000 8cc2 0000 4842 0000 d6c2
000002a0: 0000 e0c0 0000 cac2 0000 ae42 0000 4040
000002b0: 0000 eac2 0000 e642 0000 c0c1 0000 a0c0
000002c0: 0000 b8c1 0000 b042 0000 9841 0000 94c2
000002d0: 0000 ae42 0000 9442 0000 c8c1 0000 c242
000002e0: 0000 b8c2 0000 b642 0000 7442 0000 a841
000002f0: 0000 d8c1 0000 10c1 0000 86c2 0000 6042
