workspace/jh_fpga_amr/src/py/models/output_rtl/vgglike_5f_5c_4re_4mp_pr0.3_quant8.onnx/intermediate_models/step_generate_estimate_reports.onnx (onnx, 35687 bytes, 2 tensors)

MultiThreshold_1_param0 f4 [32, 255]
3568.0 3698.0 3828.0 3957.0 4087.0 4217.0 4346.0 4476.0
4606.0 4735.0 4865.0 4994.0 5124.0 5254.0 5383.0 5513.0
5643.0 5772.0 5902.0 6032.0 6161.0 6291.0 6421.0 6550.0
6680.0 6809.0 6939.0 7069.0 7198.0 7328.0 7458.0 7587.0
7717.0 7847.0 7976.0 8106.0 8236.0 8365.0 8495.0 8624.0
8754.0 8884.0 9013.0 9143.0 9273.0 9402.0 9532.0 9662.0
9791.0 9921.0 10051.0 10180.0 10310.0 10440.0 10569.0 10699.0
10828.0 10958.0 11088.0 11217.0 11347.0 11477.0 11606.0 11736.0
11866.0 11995.0 12125.0 12255.0 12384.0 12514.0 12643.0 12773.0
12903.0 13032.0 13162.0 13292.0 13421.0 13551.0 13681.0 13810.0
13940.0 14070.0 14199.0 14329.0 14459.0 14588.0 14718.0 14847.0
14977.0 15107.0 15236.0 15366.0 15496.0 15625.0 15755.0 15885.0
16014.0 16144.0 16274.0 16403.0 16533.0 16662.0 16792.0 16922.0
17051.0 17181.0 17311.0 17440.0 17570.0 17700.0 17829.0 17959.0
18089.0 18218.0 18348.0 18477.0 18607.0 18737.0 18866.0 18996.0
19126.0 19255.0 19385.0 19515.0 19644.0 19774.0 19904.0 20033.0
20163.0 20293.0 20422.0 20552.0 20681.0 20811.0 20941.0 21070.0
21200.0 21330.0 21459.0 21589.0 21719.0 21848.0 21978.0 22108.0
22237.0 22367.0 22496.0 22626.0 22756.0 22885.0 23015.0 23145.0
23274.0 23404.0 23534.0 23663.0 23793.0 23923.0 24052.0 24182.0
24312.0 24441.0 24571.0 24700.0 24830.0 24960.0 25089.0 25219.0
25349.0 25478.0 25608.0 25738.0 25867.0 25997.0 26127.0 26256.0
26386.0 26515.0 26645.0 26775.0 26904.0 27034.0 27164.0 27293.0
27423.0 27553.0 27682.0 27812.0 27942.0 28071.0 28201.0 28330.0
28460.0 28590.0 28719.0 28849.0 28979.0 29108.0 29238.0 29368.0
29497.0 29627.0 29757.0 29886.0 30016.0 30146.0 30275.0 30405.0
30534.0 30664.0 30794.0 30923.0 31053.0 31183.0 31312.0 31442.0
31572.0 31701.0 31831.0 31961.0 32090.0 32220.0 32349.0 32479.0
32609.0 32738.0 32868.0 32998.0 33127.0 33257.0 33387.0 33516.0
33646.0 33776.0 33905.0 34035.0 34165.0 34294.0 34424.0 34553.0
34683.0 34813.0 34942.0 35072.0 35202.0 35331.0 35461.0 35591.0
35720.0 35850.0 35980.0 36109.0 36239.0 36368.0 36498.0 2591.0
00000000: 0000 5f45 0020 6745 0040 6f45 0050 7745
00000010: 0070 7f45 00c8 8345 00d0 8745 00e0 8b45
00000020: 00f0 8f45 00f8 9345 0008 9845 0010 9c45
00000030: 0020 a045 0030 a445 0038 a845 0048 ac45
00000040: 0058 b045 0060 b445 0070 b845 0080 bc45
00000050: 0088 c045 0098 c445 00a8 c845 00b0 cc45
00000060: 00c0 d045 00c8 d445 00d8 d845 00e8 dc45
00000070: 00f0 e045 0000 e545 0010 e945 0018 ed45
00000080: 0028 f145 0038 f545 0040 f945 0050 fd45
00000090: 00b0 0046 00b4 0246 00bc 0446 00c0 0646
000000a0: 00c8 0846 00d0 0a46 00d4 0c46 00dc 0e46
000000b0: 00e4 1046 00e8 1246 00f0 1446 00f8 1646
000000c0: 00fc 1846 0004 1b46 000c 1d46 0010 1f46
000000d0: 0018 2146 0020 2346 0024 2546 002c 2746
000000e0: 0030 2946 0038 2b46 0040 2d46 0044 2f46
000000f0: 004c 3146 0054 3346 0058 3546 0060 3746
00000100: 0068 3946 006c 3b46 0074 3d46 007c 3f46
00000110: 0080 4146 0088 4346 008c 4546 0094 4746
00000120: 009c 4946 00a0 4b46 00a8 4d46 00b0 4f46
00000130: 00b4 5146 00bc 5346 00c4 5546 00c8 5746
00000140: 00d0 5946 00d8 5b46 00dc 5d46 00e4 5f46
00000150: 00ec 6146 00f0 6346 00f8 6546 00fc 6746
00000160: 0004 6a46 000c 6c46 0010 6e46 0018 7046
00000170: 0020 7246 0024 7446 002c 7646 0034 7846
00000180: 0038 7a46 0040 7c46 0048 7e46 0026 8046
00000190: 002a 8146 002c 8246 0030 8346 0034 8446
000001a0: 0036 8546 003a 8646 003e 8746 0040 8846
000001b0: 0044 8946 0048 8a46 004a 8b46 004e 8c46
000001c0: 0052 8d46 0054 8e46 0058 8f46 005a 9046
000001d0: 005e 9146 0062 9246 0064 9346 0068 9446
000001e0: 006c 9546 006e 9646 0072 9746 0076 9846
000001f0: 0078 9946 007c 9a46 0080 9b46 0082 9c46
00000200: 0086 9d46 008a 9e46 008c 9f46 0090 a046
00000210: 0092 a146 0096 a246 009a a346 009c a446
00000220: 00a0 a546 00a4 a646 00a6 a746 00aa a846
00000230: 00ae a946 00b0 aa46 00b4 ab46 00b8 ac46
00000240: 00ba ad46 00be ae46 00c0 af46 00c4 b046
00000250: 00c8 b146 00ca b246 00ce b346 00d2 b446
00000260: 00d4 b546 00d8 b646 00dc b746 00de b846
00000270: 00e2 b946 00e6 ba46 00e8 bb46 00ec bc46
00000280: 00f0 bd46 00f2 be46 00f6 bf46 00f8 c046
00000290: 00fc c146 0000 c346 0002 c446 0006 c546
000002a0: 000a c646 000c c746 0010 c846 0014 c946
000002b0: 0016 ca46 001a cb46 001e cc46 0020 cd46
000002c0: 0024 ce46 0026 cf46 002a d046 002e d146
000002d0: 0030 d246 0034 d346 0038 d446 003a d546
000002e0: 003e d646 0042 d746 0044 d846 0048 d946
000002f0: 004c da46 004e db46 0052 dc46 0054 dd46
00000300: 0058 de46 005c df46 005e e046 0062 e146
00000310: 0066 e246 0068 e346 006c e446 0070 e546
00000320: 0072 e646 0076 e746 007a e846 007c e946
00000330: 0080 ea46 0084 eb46 0086 ec46 008a ed46
00000340: 008c ee46 0090 ef46 0094 f046 0096 f146
00000350: 009a f246 009e f346 00a0 f446 00a4 f546
00000360: 00a8 f646 00aa f746 00ae f846 00b2 f946
00000370: 00b4 fa46 00b8 fb46 00ba fc46 00be fd46
00000380: 00c2 fe46 00c4 ff46 0064 0047 00e6 0047
00000390: 0067 0147 00e9 0147 006b 0247 00ec 0247
000003a0: 006e 0347 00f0 0347 0071 0447 00f3 0447
000003b0: 0075 0547 00f6 0547 0078 0647 00f9 0647
000003c0: 007b 0747 00fd 0747 007e 0847 0000 0947
000003d0: 0082 0947 0003 0a47 0085 0a47 0007 0b47
000003e0: 0088 0b47 000a 0c47 008c 0c47 000d 0d47
000003f0: 008f 0d47 0010 0e47 0092 0e47 00f0 2145

MatMul_0_param0 f4 [6, 32]
-37.0 4.0 60.0 -8.0 0.0 -51.0 13.0 0.0
37.0 56.0 -35.0 23.0 8.0 51.0 -20.0 0.0
0.0 0.0 -9.0 18.0 0.0 -48.0 -44.0 -21.0
0.0 2.0 -1.0 -3.0 127.0 -30.0 22.0 -65.0
-52.0 54.0 8.0 45.0 0.0 -10.0 20.0 0.0
-74.0 15.0 -51.0 -15.0 7.0 69.0 -8.0 0.0
0.0 0.0 -1.0 -13.0 0.0 -20.0 -56.0 -42.0
0.0 -80.0 1.0 -3.0 -122.0 58.0 -27.0 75.0
-53.0 10.0 13.0 -73.0 0.0 -64.0 13.0 0.0
5.0 69.0 -30.0 72.0 -105.0 -37.0 -72.0 0.0
0.0 0.0 0.0 14.0 0.0 -8.0 19.0 53.0
0.0 -11.0 -2.0 5.0 15.0 -19.0 5.0 -44.0
69.0 -49.0 -21.0 75.0 0.0 48.0 -33.0 0.0
-70.0 -70.0 -30.0 71.0 101.0 39.0 -25.0 0.0
0.0 0.0 -8.0 -8.0 0.0 59.0 -5.0 54.0
0.0 85.0 -17.0 8.0 -6.0 42.0 -47.0 -29.0
-62.0 -53.0 -72.0 4.0 0.0 3.0 85.0 0.0
-46.0 -1.0 -65.0 -73.0 -11.0 -71.0 65.0 0.0
0.0 0.0 11.0 68.0 0.0 83.0 10.0 53.0
0.0 0.0 -14.0 -1.0 14.0 18.0 82.0 6.0
57.0 42.0 44.0 13.0 0.0 -27.0 -96.0 0.0
-54.0 -61.0 19.0 -43.0 5.0 15.0 -71.0 0.0
0.0 0.0 -3.0 65.0 0.0 -54.0 -68.0 27.0
0.0 53.0 -21.0 -3.0 -4.0 -45.0 -20.0 14.0
00000000: 0000 14c2 0000 8040 0000 7042 0000 00c1
00000010: 0000 0000 0000 4cc2 0000 5041 0000 0000
00000020: 0000 1442 0000 6042 0000 0cc2 0000 b841
00000030: 0000 0041 0000 4c42 0000 a0c1 0000 0000
00000040: 0000 0000 0000 0000 0000 10c1 0000 9041
00000050: 0000 0000 0000 40c2 0000 30c2 0000 a8c1
00000060: 0000 0000 0000 0040 0000 80bf 0000 40c0
00000070: 0000 fe42 0000 f0c1 0000 b041 0000 82c2
00000080: 0000 50c2 0000 5842 0000 0041 0000 3442
00000090: 0000 0000 0000 20c1 0000 a041 0000 0000
000000a0: 0000 94c2 0000 7041 0000 4cc2 0000 70c1
000000b0: 0000 e040 0000 8a42 0000 00c1 0000 0000
000000c0: 0000 0000 0000 0000 0000 80bf 0000 50c1
000000d0: 0000 0000 0000 a0c1 0000 60c2 0000 28c2
000000e0: 0000 0000 0000 a0c2 0000 803f 0000 40c0
000000f0: 0000 f4c2 0000 6842 0000 d8c1 0000 9642
00000100: 0000 54c2 0000 2041 0000 5041 0000 92c2
00000110: 0000 0000 0000 80c2 0000 5041 0000 0000
00000120: 0000 a040 0000 8a42 0000 f0c1 0000 9042
00000130: 0000 d2c2 0000 14c2 0000 90c2 0000 0000
00000140: 0000 0000 0000 0000 0000 0000 0000 6041
00000150: 0000 0000 0000 00c1 0000 9841 0000 5442
00000160: 0000 0000 0000 30c1 0000 00c0 0000 a040
00000170: 0000 7041 0000 98c1 0000 a040 0000 30c2
00000180: 0000 8a42 0000 44c2 0000 a8c1 0000 9642
00000190: 0000 0000 0000 4042 0000 04c2 0000 0000
000001a0: 0000 8cc2 0000 8cc2 0000 f0c1 0000 8e42
000001b0: 0000 ca42 0000 1c42 0000 c8c1 0000 0000
000001c0: 0000 0000 0000 0000 0000 00c1 0000 00c1
000001d0: 0000 0000 0000 6c42 0000 a0c0 0000 5842
000001e0: 0000 0000 0000 aa42 0000 88c1 0000 0041
000001f0: 0000 c0c0 0000 2842 0000 3cc2 0000 e8c1
00000200: 0000 78c2 0000 54c2 0000 90c2 0000 8040
00000210: 0000 0000 0000 4040 0000 aa42 0000 0000
00000220: 0000 38c2 0000 80bf 0000 82c2 0000 92c2
00000230: 0000 30c1 0000 8ec2 0000 8242 0000 0000
00000240: 0000 0000 0000 0000 0000 3041 0000 8842
00000250: 0000 0000 0000 a642 0000 2041 0000 5442
00000260: 0000 0000 0000 0000 0000 60c1 0000 80bf
00000270: 0000 6041 0000 9041 0000 a442 0000 c040
00000280: 0000 6442 0000 2842 0000 3042 0000 5041
00000290: 0000 0000 0000 d8c1 0000 c0c2 0000 0000
000002a0: 0000 58c2 0000 74c2 0000 9841 0000 2cc2
000002b0: 0000 a040 0000 7041 0000 8ec2 0000 0000
000002c0: 0000 0000 0000 0000 0000 40c0 0000 8242
000002d0: 0000 0000 0000 58c2 0000 88c2 0000 d841
000002e0: 0000 0000 0000 5442 0000 a8c1 0000 40c0
000002f0: 0000 80c0 0000 34c2 0000 a0c1 0000 6041
