workspace/jh_fpga_amr/src/py/models/output_estimates/vgglike_5f_5c_4re_4mp_pr0.2_quant8.onnx/intermediate_models/supported_op_partitions/partition_0.onnx (onnx, 2298 bytes, 1 tensors)

MatMul_0_param0 f4 [6, 32]
97.0 15.0 6.0 -12.0 102.0 -5.0 48.0 -111.0
-108.0 -39.0 19.0 92.0 10.0 18.0 39.0 91.0
16.0 -1.0 -79.0 -60.0 -70.0 59.0 -26.0 -64.0
-47.0 93.0 -82.0 22.0 27.0 96.0 17.0 5.0
78.0 -12.0 44.0 -3.0 58.0 -63.0 48.0 -88.0
-65.0 -105.0 117.0 -117.0 -1.0 1.0 -60.0 95.0
-73.0 18.0 -56.0 -115.0 -53.0 99.0 121.0 -101.0
17.0 10.0 -19.0 116.0 56.0 -104.0 86.0 -2.0
-47.0 -3.0 -95.0 -9.0 -111.0 45.0 -104.0 -6.0
-27.0 78.0 -3.0 -34.0 6.0 11.0 60.0 124.0
-69.0 -2.0 16.0 59.0 -98.0 62.0 18.0 109.0
9.0 52.0 -52.0 -69.0 118.0 -5.0 57.0 8.0
98.0 7.0 -74.0 5.0 31.0 60.0 62.0 101.0
-63.0 -122.0 4.0 88.0 0.0 15.0 83.0 -70.0
98.0 -5.0 112.0 -32.0 83.0 -19.0 -116.0 -19.0
-73.0 -93.0 106.0 80.0 127.0 -84.0 -122.0 11.0
77.0 8.0 37.0 -5.0 99.0 -48.0 63.0 -88.0
-23.0 -3.0 -123.0 28.0 -6.0 -10.0 -54.0 -59.0
-99.0 8.0 97.0 47.0 109.0 88.0 -18.0 -88.0
108.0 99.0 -108.0 -56.0 -58.0 -80.0 -39.0 12.0
-81.0 -3.0 81.0 10.0 -18.0 -119.0 47.0 67.0
-93.0 -41.0 -122.0 91.0 1.0 -6.0 -68.0 74.0
-110.0 -15.0 79.0 64.0 -32.0 -120.0 -66.0 -85.0
-108.0 -88.0 -122.0 18.0 51.0 -94.0 73.0 12.0
00000000: 0000 c242 0000 7041 0000 c040 0000 40c1
00000010: 0000 cc42 0000 a0c0 0000 4042 0000 dec2
00000020: 0000 d8c2 0000 1cc2 0000 9841 0000 b842
00000030: 0000 2041 0000 9041 0000 1c42 0000 b642
00000040: 0000 8041 0000 80bf 0000 9ec2 0000 70c2
00000050: 0000 8cc2 0000 6c42 0000 d0c1 0000 80c2
00000060: 0000 3cc2 0000 ba42 0000 a4c2 0000 b041
00000070: 0000 d841 0000 c042 0000 8841 0000 a040
00000080: 0000 9c42 0000 40c1 0000 3042 0000 40c0
00000090: 0000 6842 0000 7cc2 0000 4042 0000 b0c2
000000a0: 0000 82c2 0000 d2c2 0000 ea42 0000 eac2
000000b0: 0000 80bf 0000 803f 0000 70c2 0000 be42
000000c0: 0000 92c2 0000 9041 0000 60c2 0000 e6c2
000000d0: 0000 54c2 0000 c642 0000 f242 0000 cac2
000000e0: 0000 8841 0000 2041 0000 98c1 0000 e842
000000f0: 0000 6042 0000 d0c2 0000 ac42 0000 00c0
00000100: 0000 3cc2 0000 40c0 0000 bec2 0000 10c1
00000110: 0000 dec2 0000 3442 0000 d0c2 0000 c0c0
00000120: 0000 d8c1 0000 9c42 0000 40c0 0000 08c2
00000130: 0000 c040 0000 3041 0000 7042 0000 f842
00000140: 0000 8ac2 0000 00c0 0000 8041 0000 6c42
00000150: 0000 c4c2 0000 7842 0000 9041 0000 da42
00000160: 0000 1041 0000 5042 0000 50c2 0000 8ac2
00000170: 0000 ec42 0000 a0c0 0000 6442 0000 0041
00000180: 0000 c442 0000 e040 0000 94c2 0000 a040
00000190: 0000 f841 0000 7042 0000 7842 0000 ca42
000001a0: 0000 7cc2 0000 f4c2 0000 8040 0000 b042
000001b0: 0000 0000 0000 7041 0000 a642 0000 8cc2
000001c0: 0000 c442 0000 a0c0 0000 e042 0000 00c2
000001d0: 0000 a642 0000 98c1 0000 e8c2 0000 98c1
000001e0: 0000 92c2 0000 bac2 0000 d442 0000 a042
000001f0: 0000 fe42 0000 a8c2 0000 f4c2 0000 3041
00000200: 0000 9a42 0000 0041 0000 1442 0000 a0c0
00000210: 0000 c642 0000 40c2 0000 7c42 0000 b0c2
00000220: 0000 b8c1 0000 40c0 0000 f6c2 0000 e041
00000230: 0000 c0c0 0000 20c1 0000 58c2 0000 6cc2
00000240: 0000 c6c2 0000 0041 0000 c242 0000 3c42
00000250: 0000 da42 0000 b042 0000 90c1 0000 b0c2
00000260: 0000 d842 0000 c642 0000 d8c2 0000 60c2
00000270: 0000 68c2 0000 a0c2 0000 1cc2 0000 4041
00000280: 0000 a2c2 0000 40c0 0000 a242 0000 2041
00000290: 0000 90c1 0000 eec2 0000 3c42 0000 8642
000002a0: 0000 bac2 0000 24c2 0000 f4c2 0000 b642
000002b0: 0000 803f 0000 c0c0 0000 88c2 0000 9442
000002c0: 0000 dcc2 0000 70c1 0000 9e42 0000 8042
000002d0: 0000 00c2 0000 f0c2 0000 84c2 0000 aac2
000002e0: 0000 d8c2 0000 b0c2 0000 f4c2 0000 9041
000002f0: 0000 4c42 0000 bcc2 0000 9242 0000 4041
