workspace/jh_fpga_amr/src/py/models/output_estimates/vgglike_5f_5c_4re_4mp_pr0.1_quant8.onnx/intermediate_models/step_target_fps_parallelization.onnx (onnx, 2430 bytes, 1 tensors)

MatMul_0_param0 f4 [6, 32]
00000000: 0000 c841 0000 c442 0000 30c1 0000 cec2
00000010: 0000 de42 0000 8e42 0000 9ec2 0000 3842
00000020: 0000 82c2 0000 14c2 0000 803f 0000 40c2
00000030: 0000 10c1 0000 8a42 0000 3842 0000 9041
00000040: 0000 a0c1 0000 c0c2 0000 a6c2 0000 82c2
00000050: 0000 6842 0000 0041 0000 8ec2 0000 f841
00000060: 0000 e041 0000 1041 0000 cc42 0000 7c42
00000070: 0000 e4c2 0000 bec2 0000 7042 0000 c040
00000080: 0000 f0c2 0000 b841 0000 f8c1 0000 6c42
00000090: 0000 30c1 0000 90c2 0000 aa42 0000 2cc2
000000a0: 0000 d842 0000 8642 0000 70c2 0000 e642
000000b0: 0000 cec2 0000 fcc2 0000 c041 0000 803f
000000c0: 0000 80c1 0000 8c42 0000 d841 0000 c0c1
000000d0: 0000 9ec2 0000 8040 0000 4842 0000 dc42
000000e0: 0000 a6c2 0000 40c0 0000 ea42 0000 7042
000000f0: 0000 bec2 0000 6041 0000 a442 0000 cc42
00000100: 0000 4042 0000 c8c2 0000 7cc2 0000 aac2
00000110: 0000 74c2 0000 9842 0000 00c0 0000 c4c2
00000120: 0000 58c2 0000 58c2 0000 b042 0000 5cc2
00000130: 0000 803f 0000 82c2 0000 b242 0000 8040
00000140: 0000 9042 0000 ae42 0000 c842 0000 ca42
00000150: 0000 44c2 0000 60c1 0000 60c2 0000 7442
00000160: 0000 14c2 0000 00c0 0000 a8c2 0000 38c2
00000170: 0000 1442 0000 2cc2 0000 9cc2 0000 8a42
00000180: 0000 64c2 0000 d6c2 0000 fec2 0000 40c2
00000190: 0000 4c42 0000 68c2 0000 de42 0000 78c2
000001a0: 0000 a6c2 0000 ea42 0000 6cc2 0000 7041
000001b0: 0000 f2c2 0000 7442 0000 5042 0000 90c1
000001c0: 0000 d2c2 0000 88c1 0000 1842 0000 08c2
000001d0: 0000 14c2 0000 803f 0000 3041 0000 4842
000001e0: 0000 a2c2 0000 803f 0000 78c2 0000 0442
000001f0: 0000 92c2 0000 d8c1 0000 e841 0000 d041
00000200: 0000 bc42 0000 b642 0000 d642 0000 9041
00000210: 0000 ae42 0000 00c0 0000 dec2 0000 4842
00000220: 0000 c0c2 0000 c8c2 0000 1842 0000 1442
00000230: 0000 20c2 0000 e042 0000 9ec2 0000 80c0
00000240: 0000 e041 0000 86c2 0000 4442 0000 10c2
00000250: 0000 d6c2 0000 0000 0000 c841 0000 ce42
00000260: 0000 98c2 0000 c0c0 0000 00c1 0000 b2c2
00000270: 0000 94c2 0000 58c2 0000 8642 0000 e4c2
00000280: 0000 f042 0000 98c1 0000 30c1 0000 1c42
00000290: 0000 b642 0000 e040 0000 f0c2 0000 0000
000002a0: 0000 bc42 0000 78c2 0000 ccc2 0000 b042
000002b0: 0000 1cc2 0000 dec2 0000 e442 0000 3041
000002c0: 0000 4842 0000 c841 0000 08c2 0000 7c42
000002d0: 0000 f0c1 0000 4040 0000 04c2 0000 8041
000002e0: 0000 4042 0000 c040 0000 3442 0000 4c42
000002f0: 0000 cec2 0000 9642 0000 ee42 0000 c841
25.0 98.0 -11.0 -103.0 111.0 71.0 -79.0 46.0
-65.0 -37.0 1.0 -48.0 -9.0 69.0 46.0 18.0
-20.0 -96.0 -83.0 -65.0 58.0 8.0 -71.0 31.0
28.0 9.0 102.0 63.0 -114.0 -95.0 60.0 6.0
-120.0 23.0 -31.0 59.0 -11.0 -72.0 85.0 -43.0
108.0 67.0 -60.0 115.0 -103.0 -126.0 24.0 1.0
-16.0 70.0 27.0 -24.0 -79.0 4.0 50.0 110.0
-83.0 -3.0 117.0 60.0 -95.0 14.0 82.0 102.0
48.0 -100.0 -63.0 -85.0 -61.0 76.0 -2.0 -98.0
-54.0 -54.0 88.0 -55.0 1.0 -65.0 89.0 4.0
72.0 87.0 100.0 101.0 -49.0 -14.0 -56.0 61.0
-37.0 -2.0 -84.0 -46.0 37.0 -43.0 -78.0 69.0
-57.0 -107.0 -127.0 -48.0 51.0 -58.0 111.0 -62.0
-83.0 117.0 -59.0 15.0 -121.0 61.0 52.0 -18.0
-105.0 -17.0 38.0 -34.0 -37.0 1.0 11.0 50.0
-81.0 1.0 -62.0 33.0 -73.0 -27.0 29.0 26.0
94.0 91.0 107.0 18.0 87.0 -2.0 -111.0 50.0
-96.0 -100.0 38.0 37.0 -40.0 112.0 -79.0 -4.0
28.0 -67.0 49.0 -36.0 -107.0 0.0 25.0 103.0
-76.0 -6.0 -8.0 -89.0 -74.0 -54.0 67.0 -114.0
120.0 -19.0 -11.0 39.0 91.0 7.0 -120.0 0.0
94.0 -62.0 -102.0 88.0 -39.0 -111.0 114.0 11.0
50.0 25.0 -34.0 63.0 -30.0 3.0 -33.0 16.0
48.0 6.0 45.0 51.0 -103.0 75.0 119.0 25.0
