workspace/jh_fpga_amr/src/py/models/output_rtl/vgglike_3f_3c_2re_2mp_pr0.3_quant8.onnx/intermediate_models/step_target_fps_parallelization.onnx (onnx, 2430 bytes, 1 tensors)

MatMul_0_param0 f4 [6, 32]
0	0xc1500000	-13.0
1	0x42d00000	104.0
2	0x42340000	45.0
3	0x41880000	17.0
4	0x41c80000	25.0
5	0x3f800000	1.0
6	0x42b20000	89.0
7	0xc2280000	-42.0
8	0xc2f40000	-122.0
9	0x40a00000	5.0
10	0xbf800000	-1.0
11	0x42ca0000	101.0
12	0xc2900000	-72.0
13	0xc2280000	-42.0
14	0xc1c80000	-25.0
15	0xc1f80000	-31.0
16	0x41a00000	20.0
17	0xc1e00000	-28.0
18	0x3f800000	1.0
19	0xc2b80000	-92.0
20	0xc2340000	-45.0
21	0x41e80000	29.0
22	0x42b00000	88.0
23	0xc1c00000	-24.0
24	0x42f40000	122.0
25	0x42c60000	99.0
26	0x42200000	40.0
27	0xc2ac0000	-86.0
28	0xc2880000	-68.0
29	0xc2440000	-49.0
30	0xc2680000	-58.0
31	0xc1700000	-15.0
32	0x42080000	34.0
33	0xc1d80000	-27.0
34	0xc1e80000	-29.0
35	0xc1880000	-17.0
36	0x41400000	12.0
37	0x41e80000	29.0
38	0x41d00000	26.0
39	0xc28e0000	-71.0
40	0x42ca0000	101.0
41	0xc1200000	-10.0
42	0x40000000	2.0
43	0x42740000	61.0
44	0x42ce0000	103.0
45	0x41c00000	24.0
46	0x40800000	4.0
47	0xbf800000	-1.0
48	0x41a80000	21.0
49	0xc1800000	-16.0
50	0xc2ca0000	-101.0
51	0xc2c60000	-99.0
52	0x425c0000	55.0
53	0xc2440000	-49.0
54	0xc1f00000	-30.0
55	0x41980000	19.0
56	0x41c00000	24.0
57	0x41a00000	20.0
58	0x41a00000	20.0
59	0xc2480000	-50.0
60	0xc2ae0000	-87.0
61	0xc2c20000	-97.0
62	0xc1300000	-11.0
63	0xc0a00000	-5.0
64	0x41d00000	26.0
65	0x41880000	17.0
66	0xc2780000	-62.0
67	0x00000000	0.0
68	0x41200000	10.0
69	0x41100000	9.0
70	0x42380000	46.0
71	0xc2fe0000	-127.0
72	0xc2980000	-76.0
73	0x41400000	12.0
74	0x42b60000	91.0
75	0xc1d00000	-26.0
76	0x42200000	40.0
77	0x42a20000	81.0
78	0xc1600000	-14.0
79	0x42040000	33.0
80	0x40000000	2.0
81	0xc1000000	-8.0
82	0x42440000	49.0
83	0xc2b60000	-91.0
84	0x42b60000	91.0
85	0x42ba0000	93.0
86	0xc27c0000	-63.0
87	0xc2b20000	-89.0
88	0xc2800000	-64.0
89	0x42fe0000	127.0
90	0x42820000	65.0
91	0x42840000	66.0
92	0xc29a0000	-77.0
93	0x00000000	0.0
94	0xc2f00000	-120.0
95	0x40400000	3.0
96	0xc1e80000	-29.0
97	0xc2ba0000	-93.0
98	0x42bc0000	94.0
99	0x3f800000	1.0
100	0xc1300000	-11.0
101	0xc1300000	-11.0
102	0x41800000	16.0
103	0xc2ce0000	-103.0
104	0x3f800000	1.0
105	0xc1800000	-16.0
106	0xc2c00000	-96.0
107	0xc2ce0000	-103.0
108	0x429e0000	79.0
109	0xc2860000	-67.0
110	0x424c0000	51.0
111	0x41300000	11.0
112	0x40000000	2.0
113	0x41100000	9.0
114	0x428a0000	69.0
115	0xc2c00000	-96.0
116	0x42960000	75.0
117	0x42380000	46.0
118	0x41a00000	20.0
119	0xc2400000	-48.0
120	0x423c0000	47.0
121	0x42100000	36.0
122	0x42540000	53.0
123	0xc0a00000	-5.0
124	0x42c60000	99.0
125	0xc27c0000	-63.0
126	0x428a0000	69.0
127	0x41a00000	20.0
128	0x40800000	4.0
129	0xc2940000	-74.0
130	0xc20c0000	-35.0
131	0x3f800000	1.0
132	0x3f800000	1.0
133	0xc1800000	-16.0
134	0x42e40000	114.0
135	0x428a0000	69.0
136	0x42920000	73.0
137	0x41a00000	20.0
138	0x42b80000	92.0
139	0xc1800000	-16.0
140	0x42300000	44.0
141	0xc2280000	-42.0
142	0xc1980000	-19.0
143	0x41d80000	27.0
144	0x40800000	4.0
145	0x41880000	17.0
146	0xc0400000	-3.0
147	0x41000000	8.0
148	0xc2b60000	-91.0
149	0xc1d80000	-27.0
150	0xc2a00000	-80.0
151	0x42b00000	88.0
152	0x42140000	37.0
153	0x41a00000	20.0
154	0x42aa0000	85.0
155	0xc28e0000	-71.0
156	0x41b00000	22.0
157	0xc2480000	-50.0
158	0x42540000	53.0
159	0xc1000000	-8.0
160	0x40e00000	7.0
161	0x42600000	56.0
162	0x421c0000	39.0
163	0x42000000	32.0
164	0x421c0000	39.0
165	0x41100000	9.0
166	0xc2440000	-49.0
167	0x428e0000	71.0
168	0x41a80000	21.0
169	0xc1a80000	-21.0
170	0x42ba0000	93.0
171	0xc1300000	-11.0
172	0xc2200000	-40.0
173	0xc2e80000	-116.0
174	0xc2080000	-34.0
175	0xc0000000	-2.0
176	0xc21c0000	-39.0
177	0xc1880000	-17.0
178	0xc2aa0000	-85.0
179	0x40000000	2.0
180	0x42940000	74.0
181	0x42c80000	100.0
182	0xc2aa0000	-85.0
183	0xc2180000	-38.0
184	0x42860000	67.0
185	0xc2080000	-34.0
186	0x42b20000	89.0
187	0x42880000	68.0
188	0x42a20000	81.0
189	0x41c80000	25.0
190	0xc2d80000	-108.0
191	0xc1a80000	-21.0
