workspace/jh_fpga_amr/src/py/models/output_rtl/vgglike_2f_2c_1re_1mp_pr0_quant8.onnx/intermediate_models/step_apply_folding_config.onnx (onnx, 2430 bytes, 1 tensors)

MatMul_0_param0 f4 [6, 32]
0	0xbf800000	-1.0
1	0xc2820000	-65.0
2	0x42880000	68.0
3	0x429c0000	78.0
4	0x41c80000	25.0
5	0xc2440000	-49.0
6	0xc0000000	-2.0
7	0x42140000	37.0
8	0x426c0000	59.0
9	0x42920000	73.0
10	0x41a80000	21.0
11	0x42b40000	90.0
12	0xbf800000	-1.0
13	0x40a00000	5.0
14	0x3f800000	1.0
15	0x42c60000	99.0
16	0xc28a0000	-69.0
17	0x40c00000	6.0
18	0x42980000	76.0
19	0x42fe0000	127.0
20	0xc22c0000	-43.0
21	0xc2280000	-42.0
22	0x41c00000	24.0
23	0xc2300000	-44.0
24	0xc1700000	-15.0
25	0xc2780000	-62.0
26	0xc28a0000	-69.0
27	0x40400000	3.0
28	0x42580000	54.0
29	0xc1d00000	-26.0
30	0x42040000	33.0
31	0x42640000	57.0
32	0x40000000	2.0
33	0xc1b00000	-22.0
34	0x41b80000	23.0
35	0xc1d80000	-27.0
36	0x42540000	53.0
37	0x41300000	11.0
38	0xc0400000	-3.0
39	0x41e80000	29.0
40	0xc2740000	-61.0
41	0xc2200000	-40.0
42	0xc1d00000	-26.0
43	0xc2500000	-52.0
44	0xc2be0000	-95.0
45	0xc2540000	-53.0
46	0xc2d80000	-108.0
47	0x40a00000	5.0
48	0xc2200000	-40.0
49	0xc1e80000	-29.0
50	0xc1800000	-16.0
51	0xbf800000	-1.0
52	0xc2080000	-34.0
53	0x42500000	52.0
54	0x42740000	61.0
55	0xc22c0000	-43.0
56	0x42aa0000	85.0
57	0x420c0000	35.0
58	0x42820000	65.0
59	0xbf800000	-1.0
60	0x42240000	41.0
61	0xc2180000	-38.0
62	0xc2a00000	-80.0
63	0xc2540000	-53.0
64	0xc0800000	-4.0
65	0x40400000	3.0
66	0xc1b80000	-23.0
67	0xc2300000	-44.0
68	0x426c0000	59.0
69	0xc28a0000	-69.0
70	0x40400000	3.0
71	0x42780000	62.0
72	0xc23c0000	-47.0
73	0x42c20000	97.0
74	0xc1c80000	-25.0
75	0xc2000000	-32.0
76	0x42300000	44.0
77	0x42820000	65.0
78	0x40a00000	5.0
79	0x42ca0000	101.0
80	0xc0c00000	-6.0
81	0x41300000	11.0
82	0x41a00000	20.0
83	0x00000000	0.0
84	0xc2940000	-74.0
85	0xc2480000	-50.0
86	0xc0400000	-3.0
87	0xc2200000	-40.0
88	0x41700000	15.0
89	0xc2820000	-65.0
90	0x42880000	68.0
91	0x40000000	2.0
92	0xc2a00000	-80.0
93	0xc2140000	-37.0
94	0xc2300000	-44.0
95	0x42600000	56.0
96	0xc2f00000	-120.0
97	0x422c0000	43.0
98	0x42480000	50.0
99	0x42740000	61.0
100	0x42aa0000	85.0
101	0x42600000	56.0
102	0x42ca0000	101.0
103	0x42820000	65.0
104	0xc2820000	-65.0
105	0xc2b60000	-91.0
106	0xc23c0000	-47.0
107	0xc29c0000	-78.0
108	0xc2140000	-37.0
109	0xc2860000	-67.0
110	0xc2d40000	-106.0
111	0xc0c00000	-6.0
112	0xc2be0000	-95.0
113	0x42920000	73.0
114	0x42040000	33.0
115	0x00000000	0.0
116	0xc2bc0000	-94.0
117	0xc1e00000	-28.0
118	0xc26c0000	-59.0
119	0xc2180000	-38.0
120	0xbf800000	-1.0
121	0x42820000	65.0
122	0x42780000	62.0
123	0xc0000000	-2.0
124	0x42040000	33.0
125	0x42e40000	114.0
126	0x42000000	32.0
127	0xc2480000	-50.0
128	0x42500000	52.0
129	0x429e0000	79.0
130	0x42820000	65.0
131	0x41700000	15.0
132	0x42580000	54.0
133	0xc2b00000	-88.0
134	0x40000000	2.0
135	0x42be0000	95.0
136	0xc2340000	-45.0
137	0xc1e00000	-28.0
138	0xc1c00000	-24.0
139	0x42240000	41.0
140	0xc2080000	-34.0
141	0xc2380000	-46.0
142	0x00000000	0.0
143	0x42480000	50.0
144	0x42500000	52.0
145	0xc29a0000	-77.0
146	0xc2d40000	-106.0
147	0x00000000	0.0
148	0x42240000	41.0
149	0x42820000	65.0
150	0x42c60000	99.0
151	0xc29c0000	-78.0
152	0xc2b80000	-92.0
153	0xc0000000	-2.0
154	0xc0a00000	-5.0
155	0xc0a00000	-5.0
156	0xc2340000	-45.0
157	0x42140000	37.0
158	0xc2a40000	-82.0
159	0x42540000	53.0
160	0xc2740000	-61.0
161	0xc2600000	-56.0
162	0xc1f80000	-31.0
163	0x42a20000	81.0
164	0xc1000000	-8.0
165	0x429e0000	79.0
166	0xc2be0000	-95.0
167	0x42bc0000	94.0
168	0xc2480000	-50.0
169	0x42800000	64.0
170	0xc2fe0000	-127.0
171	0x42100000	36.0
172	0xc2340000	-45.0
173	0x428c0000	70.0
174	0x40400000	3.0
175	0x421c0000	39.0
176	0x42180000	38.0
177	0xc29e0000	-79.0
178	0x41880000	17.0
179	0x00000000	0.0
180	0x42600000	56.0
181	0xc2800000	-64.0
182	0x41400000	12.0
183	0x00000000	0.0
184	0xc0a00000	-5.0
185	0x427c0000	63.0
186	0xbf800000	-1.0
187	0x42fe0000	127.0
188	0x40e00000	7.0
189	0x41c00000	24.0
190	0x41e80000	29.0
191	0x42880000	68.0
