workspace/jh_fpga_amr/src/py/models/output_rtl/vgglike_6f_6c_5re_5mp_pr0_quant8.onnx/intermediate_models/step_generate_estimate_reports.onnx (onnx, 2455 bytes, 1 tensors)

MatMul_0_param0 f4 [6, 32]
000000 00 00 98 c2 00 00 a0 42 00 00 9e 42 00 00 90 c2
       -76.0 80.0 79.0 -72.0
000010 00 00 a0 c1 00 00 54 c2 00 00 b0 c1 00 00 20 41
       -20.0 -53.0 -22.0 10.0
000020 00 00 d0 c2 00 00 04 42 00 00 20 c2 00 00 9c 42
       -104.0 33.0 -40.0 78.0
000030 00 00 14 42 00 00 10 c1 00 00 ce 42 00 00 28 42
       37.0 -9.0 103.0 42.0
000040 00 00 b6 42 00 00 10 41 00 00 54 42 00 00 70 c2
       91.0 9.0 53.0 -60.0
000050 00 00 1c c2 00 00 94 42 00 00 40 40 00 00 0c 42
       -39.0 74.0 3.0 35.0
000060 00 00 20 c1 00 00 be c2 00 00 c0 41 00 00 ba c2
       -10.0 -95.0 24.0 -93.0
000070 00 00 98 c2 00 00 50 c2 00 00 d6 42 00 00 86 42
       -76.0 -52.0 107.0 67.0
000080 00 00 fe 42 00 00 d0 c1 00 00 b0 c1 00 00 68 c2
       127.0 -26.0 -22.0 -58.0
000090 00 00 a0 c0 00 00 14 c2 00 00 30 c1 00 00 f8 41
       -5.0 -37.0 -11.0 31.0
0000a0 00 00 a0 c0 00 00 a4 42 00 00 98 41 00 00 80 c2
       -5.0 82.0 19.0 -64.0
0000b0 00 00 ae c2 00 00 80 c2 00 00 00 c0 00 00 3c 42
       -87.0 -64.0 -2.0 47.0
0000c0 00 00 d8 42 00 00 78 c2 00 00 b8 c2 00 00 a6 c2
       108.0 -62.0 -92.0 -83.0
0000d0 00 00 70 c2 00 00 f8 c1 00 00 10 c1 00 00 24 42
       -60.0 -31.0 -9.0 41.0
0000e0 00 00 0c c2 00 00 00 41 00 00 fa c2 00 00 20 c2
       -35.0 8.0 -125.0 -40.0
0000f0 00 00 04 42 00 00 d8 c1 00 00 c8 c2 00 00 30 41
       33.0 -27.0 -100.0 11.0
000100 00 00 3c c2 00 00 be 42 00 00 a0 40 00 00 b8 41
       -47.0 95.0 5.0 23.0
000110 00 00 10 c1 00 00 a8 c2 00 00 80 42 00 00 2c c2
       -9.0 -84.0 64.0 -43.0
000120 00 00 86 42 00 00 90 42 00 00 00 00 00 00 90 41
       67.0 72.0 0.0 18.0
000130 00 00 de 42 00 00 9a 42 00 00 00 c2 00 00 e4 42
       111.0 77.0 -32.0 114.0
000140 00 00 84 42 00 00 b0 c1 00 00 88 41 00 00 38 42
       66.0 -22.0 17.0 46.0
000150 00 00 00 c0 00 00 92 c2 00 00 4c c2 00 00 30 c2
       -2.0 -73.0 -51.0 -44.0
000160 00 00 a2 c2 00 00 de c2 00 00 60 c1 00 00 e0 c0
       -81.0 -111.0 -14.0 -7.0
000170 00 00 9e c2 00 00 cc 42 00 00 80 c2 00 00 00 40
       -79.0 102.0 -64.0 2.0
000180 00 00 5c c2 00 00 3c c2 00 00 d0 c2 00 00 4c c2
       -55.0 -47.0 -104.0 -51.0
000190 00 00 8e c2 00 00 e2 42 00 00 d4 c2 00 00 e8 41
       -71.0 113.0 -106.0 29.0
0001a0 00 00 f8 c1 00 00 d8 c2 00 00 cc 42 00 00 90 42
       -31.0 -108.0 102.0 72.0
0001b0 00 00 1c c2 00 00 2c 42 00 00 d6 42 00 00 92 c2
       -39.0 43.0 107.0 -73.0
0001c0 00 00 9e c2 00 00 00 42 00 00 78 42 00 00 00 c1
       -79.0 32.0 62.0 -8.0
0001d0 00 00 28 42 00 00 bc c2 00 00 e0 c1 00 00 cc c2
       42.0 -94.0 -28.0 -102.0
0001e0 00 00 00 41 00 00 a8 42 00 00 e0 41 00 00 e0 c2
       8.0 84.0 28.0 -112.0
0001f0 00 00 54 42 00 00 64 c2 00 00 80 41 00 00 80 41
       53.0 -57.0 16.0 16.0
000200 00 00 08 c2 00 00 ce 42 00 00 c0 c1 00 00 34 42
       -34.0 103.0 -24.0 45.0
000210 00 00 74 42 00 00 ca 42 00 00 f2 c2 00 00 ca c2
       61.0 101.0 -121.0 -101.0
000220 00 00 84 c2 00 00 5c 42 00 00 80 3f 00 00 ca 42
       -66.0 55.0 1.0 101.0
000230 00 00 82 c2 00 00 74 c2 00 00 a0 c0 00 00 98 42
       -65.0 -61.0 -5.0 76.0
000240 00 00 dc 42 00 00 ca 42 00 00 80 c1 00 00 b4 42
       110.0 101.0 -16.0 90.0
000250 00 00 bc 42 00 00 10 c2 00 00 84 42 00 00 92 c2
       94.0 -36.0 66.0 -73.0
000260 00 00 c6 42 00 00 a4 c2 00 00 d8 c1 00 00 80 c0
       99.0 -82.0 -27.0 -4.0
000270 00 00 e0 c2 00 00 d4 c2 00 00 2c 42 00 00 58 c2
       -112.0 -106.0 43.0 -54.0
000280 00 00 18 c2 00 00 f8 41 00 00 b8 c1 00 00 b6 c2
       -38.0 31.0 -23.0 -91.0
000290 00 00 24 c2 00 00 14 42 00 00 50 c1 00 00 b0 42
       -41.0 37.0 -13.0 88.0
0002a0 00 00 ae 42 00 00 00 42 00 00 ea c2 00 00 b8 41
       87.0 32.0 -117.0 23.0
0002b0 00 00 40 41 00 00 30 c2 00 00 c8 42 00 00 74 42
       12.0 -44.0 100.0 61.0
0002c0 00 00 70 42 00 00 aa c2 00 00 60 c1 00 00 d8 42
       60.0 -85.0 -14.0 108.0
0002d0 00 00 30 41 00 00 48 c2 00 00 ae 42 00 00 90 c1
       11.0 -50.0 87.0 -18.0
0002e0 00 00 dc 42 00 00 a0 42 00 00 be 42 00 00 c0 42
       110.0 80.0 95.0 96.0
0002f0 00 00 14 42 00 00 f2 42 00 00 04 42 00 00 e8 c2
       37.0 121.0 33.0 -116.0
