workspace/jh_fpga_amr/src/py/models/output_rtl/vgglike_6f_6c_5re_5mp_pr0_quant8.onnx/intermediate_models/step_specialize_layers.onnx (onnx, 35460 bytes, 2 tensors)

MultiThreshold_1_param0 f4 [32, 255]
000000 00 80 d7 43 00 80 11 44 00 40 37 44 00 00 5d 44
       431.0 582.0 733.0 884.0
000010 00 60 81 44 00 40 94 44 00 20 a7 44 00 00 ba 44
       1035.0 1186.0 1337.0 1488.0
000020 00 e0 cc 44 00 c0 df 44 00 a0 f2 44 00 c0 02 45
       1639.0 1790.0 1941.0 2092.0
000030 00 30 0c 45 00 b0 15 45 00 20 1f 45 00 90 28 45
       2243.0 2395.0 2546.0 2697.0
000040 00 00 32 45 00 70 3b 45 00 e0 44 45 00 50 4e 45
       2848.0 2999.0 3150.0 3301.0
000050 00 c0 57 45 00 30 61 45 00 a0 6a 45 00 10 74 45
       3452.0 3603.0 3754.0 3905.0
000060 00 80 7d 45 00 78 83 45 00 30 88 45 00 e8 8c 45
       4056.0 4207.0 4358.0 4509.0
000070 00 a0 91 45 00 58 96 45 00 18 9b 45 00 d0 9f 45
       4660.0 4811.0 4963.0 5114.0
000080 00 88 a4 45 00 40 a9 45 00 f8 ad 45 00 b0 b2 45
       5265.0 5416.0 5567.0 5718.0
000090 00 68 b7 45 00 20 bc 45 00 d8 c0 45 00 90 c5 45
       5869.0 6020.0 6171.0 6322.0
0000a0 00 48 ca 45 00 00 cf 45 00 b8 d3 45 00 70 d8 45
       6473.0 6624.0 6775.0 6926.0
0000b0 00 28 dd 45 00 e0 e1 45 00 a0 e6 45 00 58 eb 45
       7077.0 7228.0 7380.0 7531.0
0000c0 00 10 f0 45 00 c8 f4 45 00 80 f9 45 00 38 fe 45
       7682.0 7833.0 7984.0 8135.0
0000d0 00 78 01 46 00 d4 03 46 00 30 06 46 00 8c 08 46
       8286.0 8437.0 8588.0 8739.0
0000e0 00 e8 0a 46 00 44 0d 46 00 a0 0f 46 00 fc 11 46
       8890.0 9041.0 9192.0 9343.0
0000f0 00 58 14 46 00 b4 16 46 00 10 19 46 00 70 1b 46
       9494.0 9645.0 9796.0 9948.0
000100 00 cc 1d 46 00 28 20 46 00 84 22 46 00 e0 24 46
       10099.0 10250.0 10401.0 10552.0
000110 00 3c 27 46 00 98 29 46 00 f4 2b 46 00 50 2e 46
       10703.0 10854.0 11005.0 11156.0
000120 00 ac 30 46 00 08 33 46 00 64 35 46 00 c0 37 46
       11307.0 11458.0 11609.0 11760.0
000130 00 1c 3a 46 00 78 3c 46 00 d4 3e 46 00 34 41 46
       11911.0 12062.0 12213.0 12365.0
000140 00 90 43 46 00 ec 45 46 00 48 48 46 00 a4 4a 46
       12516.0 12667.0 12818.0 12969.0
000150 00 00 4d 46 00 5c 4f 46 00 b8 51 46 00 14 54 46
       13120.0 13271.0 13422.0 13573.0
000160 00 70 56 46 00 cc 58 46 00 28 5b 46 00 84 5d 46
       13724.0 13875.0 14026.0 14177.0
000170 00 e0 5f 46 00 3c 62 46 00 98 64 46 00 f4 66 46
       14328.0 14479.0 14630.0 14781.0
000180 00 54 69 46 00 b0 6b 46 00 0c 6e 46 00 68 70 46
       14933.0 15084.0 15235.0 15386.0
000190 00 c4 72 46 00 20 75 46 00 7c 77 46 00 d8 79 46
       15537.0 15688.0 15839.0 15990.0
0001a0 00 34 7c 46 00 90 7e 46 00 76 80 46 00 a4 81 46
       16141.0 16292.0 16443.0 16594.0
0001b0 00 d2 82 46 00 00 84 46 00 2e 85 46 00 5c 86 46
       16745.0 16896.0 17047.0 17198.0
0001c0 00 8c 87 46 00 ba 88 46 00 e8 89 46 00 16 8b 46
       17350.0 17501.0 17652.0 17803.0
0001d0 00 44 8c 46 00 72 8d 46 00 a0 8e 46 00 ce 8f 46
       17954.0 18105.0 18256.0 18407.0
0001e0 00 fc 90 46 00 2a 92 46 00 58 93 46 00 86 94 46
       18558.0 18709.0 18860.0 19011.0
0001f0 00 b4 95 46 00 e2 96 46 00 10 98 46 00 3e 99 46
       19162.0 19313.0 19464.0 19615.0
000200 00 6c 9a 46 00 9c 9b 46 00 ca 9c 46 00 f8 9d 46
       19766.0 19918.0 20069.0 20220.0
000210 00 26 9f 46 00 54 a0 46 00 82 a1 46 00 b0 a2 46
       20371.0 20522.0 20673.0 20824.0
000220 00 de a3 46 00 0c a5 46 00 3a a6 46 00 68 a7 46
       20975.0 21126.0 21277.0 21428.0
000230 00 96 a8 46 00 c4 a9 46 00 f2 aa 46 00 20 ac 46
       21579.0 21730.0 21881.0 22032.0
000240 00 4e ad 46 00 7e ae 46 00 ac af 46 00 da b0 46
       22183.0 22335.0 22486.0 22637.0
000250 00 08 b2 46 00 36 b3 46 00 64 b4 46 00 92 b5 46
       22788.0 22939.0 23090.0 23241.0
000260 00 c0 b6 46 00 ee b7 46 00 1c b9 46 00 4a ba 46
       23392.0 23543.0 23694.0 23845.0
000270 00 78 bb 46 00 a6 bc 46 00 d4 bd 46 00 02 bf 46
       23996.0 24147.0 24298.0 24449.0
000280 00 30 c0 46 00 5e c1 46 00 8e c2 46 00 bc c3 46
       24600.0 24751.0 24903.0 25054.0
000290 00 ea c4 46 00 18 c6 46 00 46 c7 46 00 74 c8 46
       25205.0 25356.0 25507.0 25658.0
0002a0 00 a2 c9 46 00 d0 ca 46 00 fe cb 46 00 2c cd 46
       25809.0 25960.0 26111.0 26262.0
0002b0 00 5a ce 46 00 88 cf 46 00 b6 d0 46 00 e4 d1 46
       26413.0 26564.0 26715.0 26866.0
0002c0 00 12 d3 46 00 40 d4 46 00 70 d5 46 00 9e d6 46
       27017.0 27168.0 27320.0 27471.0
0002d0 00 cc d7 46 00 fa d8 46 00 28 da 46 00 56 db 46
       27622.0 27773.0 27924.0 28075.0
0002e0 00 84 dc 46 00 b2 dd 46 00 e0 de 46 00 0e e0 46
       28226.0 28377.0 28528.0 28679.0
0002f0 00 3c e1 46 00 6a e2 46 00 98 e3 46 00 c6 e4 46
       28830.0 28981.0 29132.0 29283.0
000300 00 f4 e5 46 00 22 e7 46 00 50 e8 46 00 80 e9 46
       29434.0 29585.0 29736.0 29888.0
000310 00 ae ea 46 00 dc eb 46 00 0a ed 46 00 38 ee 46
       30039.0 30190.0 30341.0 30492.0
000320 00 66 ef 46 00 94 f0 46 00 c2 f1 46 00 f0 f2 46
       30643.0 30794.0 30945.0 31096.0
000330 00 1e f4 46 00 4c f5 46 00 7a f6 46 00 a8 f7 46
       31247.0 31398.0 31549.0 31700.0
000340 00 d6 f8 46 00 04 fa 46 00 32 fb 46 00 62 fc 46
       31851.0 32002.0 32153.0 32305.0
000350 00 90 fd 46 00 be fe 46 00 ec ff 46 00 8d 00 47
       32456.0 32607.0 32758.0 32909.0
000360 00 24 01 47 00 bb 01 47 00 52 02 47 00 e9 02 47
       33060.0 33211.0 33362.0 33513.0
000370 00 80 03 47 00 17 04 47 00 ae 04 47 00 45 05 47
       33664.0 33815.0 33966.0 34117.0
000380 00 dc 05 47 00 73 06 47 00 0a 07 47 00 a1 07 47
       34268.0 34419.0 34570.0 34721.0
000390 00 39 08 47 00 d0 08 47 00 67 09 47 00 fe 09 47
       34873.0 35024.0 35175.0 35326.0
0003a0 00 95 0a 47 00 2c 0b 47 00 c3 0b 47 00 5a 0c 47
       35477.0 35628.0 35779.0 35930.0
0003b0 00 f1 0c 47 00 88 0d 47 00 1f 0e 47 00 b6 0e 47
       36081.0 36232.0 36383.0 36534.0
0003c0 00 4d 0f 47 00 e4 0f 47 00 7b 10 47 00 12 11 47
       36685.0 36836.0 36987.0 37138.0
0003d0 00 aa 11 47 00 41 12 47 00 d8 12 47 00 6f 13 47
       37290.0 37441.0 37592.0 37743.0
0003e0 00 06 14 47 00 9d 14 47 00 34 15 47 00 cb 15 47
       37894.0 38045.0 38196.0 38347.0
0003f0 00 62 16 47 00 f9 16 47 00 90 17 47 00 c0 e9 44
       38498.0 38649.0 38800.0 1870.0

MatMul_0_param0 f4 [6, 32]
000000 00 00 18 c2 00 00 b0 c2 00 00 d8 41 00 00 24 42
       -38.0 -88.0 27.0 41.0
000010 00 00 10 c2 00 00 3c 42 00 00 9e c2 00 00 38 c2
       -36.0 47.0 -79.0 -46.0
000020 00 00 7c c2 00 00 44 c2 00 00 70 c1 00 00 3c 42
       -63.0 -49.0 -15.0 47.0
000030 00 00 7c c2 00 00 60 c2 00 00 18 42 00 00 58 c2
       -63.0 -56.0 38.0 -54.0
000040 00 00 82 42 00 00 30 41 00 00 c0 42 00 00 9c c2
       65.0 11.0 96.0 -78.0
000050 00 00 4c c2 00 00 c2 42 00 00 92 c2 00 00 40 42
       -51.0 97.0 -73.0 48.0
000060 00 00 30 42 00 00 d0 c2 00 00 00 40 00 00 14 42
       44.0 -104.0 2.0 37.0
000070 00 00 78 42 00 00 9c 42 00 00 a8 42 00 00 68 42
       62.0 78.0 84.0 58.0
000080 00 00 04 c2 00 00 9e 42 00 00 40 c0 00 00 14 42
       -33.0 79.0 -3.0 37.0
000090 00 00 ba c2 00 00 20 41 00 00 e0 c2 00 00 b0 c1
       -93.0 10.0 -112.0 -22.0
0000a0 00 00 b0 42 00 00 a8 41 00 00 e0 c1 00 00 78 42
       88.0 21.0 -28.0 62.0
0000b0 00 00 20 c1 00 00 9c c2 00 00 60 41 00 00 c0 40
       -10.0 -78.0 14.0 6.0
0000c0 00 00 7c 42 00 00 80 c2 00 00 b8 c2 00 00 a0 40
       63.0 -64.0 -92.0 5.0
0000d0 00 00 88 41 00 00 94 42 00 00 b4 42 00 00 60 c1
       17.0 74.0 90.0 -14.0
0000e0 00 00 c8 41 00 00 92 c2 00 00 94 42 00 00 64 c2
       25.0 -73.0 74.0 -57.0
0000f0 00 00 92 c2 00 00 fa c2 00 00 64 42 00 00 74 c2
       -73.0 -125.0 57.0 -61.0
000100 00 00 c4 42 00 00 18 c2 00 00 98 41 00 00 10 c1
       98.0 -38.0 19.0 -9.0
000110 00 00 80 40 00 00 00 42 00 00 30 41 00 00 9a c2
       4.0 32.0 11.0 -77.0
000120 00 00 b0 42 00 00 10 42 00 00 64 c2 00 00 60 41
       88.0 36.0 -57.0 14.0
000130 00 00 38 c2 00 00 9e 42 00 00 60 41 00 00 96 c2
       -46.0 79.0 14.0 -75.0
000140 00 00 92 42 00 00 0c c2 00 00 54 c2 00 00 48 42
       73.0 -35.0 -53.0 50.0
000150 00 00 9c 42 00 00 10 c2 00 00 a8 41 00 00 ae c2
       78.0 -36.0 21.0 -87.0
000160 00 00 3c 42 00 00 a6 c2 00 00 c8 41 00 00 80 c1
       47.0 -83.0 25.0 -16.0
000170 00 00 a0 40 00 00 80 40 00 00 ac c2 00 00 ba c2
       5.0 4.0 -86.0 -93.0
000180 00 00 e0 c1 00 00 40 c1 00 00 00 00 00 00 0c 42
       -28.0 -12.0 0.0 35.0
000190 00 00 00 00 00 00 c0 c0 00 00 80 c1 00 00 dc c2
       0.0 -6.0 -16.0 -110.0
0001a0 00 00 ae 42 00 00 08 c2 00 00 04 42 00 00 d8 41
       87.0 -34.0 33.0 27.0
0001b0 00 00 a0 c2 00 00 64 c2 00 00 14 42 00 00 9e c2
       -80.0 -57.0 37.0 -79.0
0001c0 00 00 0c c2 00 00 8c 42 00 00 f0 41 00 00 d8 41
       -35.0 70.0 30.0 27.0
0001d0 00 00 a0 42 00 00 60 41 00 00 98 41 00 00 e0 41
       80.0 14.0 19.0 28.0
0001e0 00 00 44 c2 00 00 e0 40 00 00 9e c2 00 00 bc c2
       -49.0 7.0 -79.0 -94.0
0001f0 00 00 00 c1 00 00 aa c2 00 00 08 c2 00 00 40 c0
       -8.0 -85.0 -34.0 -3.0
000200 00 00 b0 c1 00 00 f0 c1 00 00 30 c2 00 00 d6 c2
       -22.0 -30.0 -44.0 -107.0
000210 00 00 82 42 00 00 80 40 00 00 30 41 00 00 20 c2
       65.0 4.0 11.0 -40.0
000220 00 00 c0 40 00 00 a4 c2 00 00 ba 42 00 00 48 42
       6.0 -82.0 93.0 50.0
000230 00 00 b6 42 00 00 50 c2 00 00 c8 42 00 00 98 c2
       91.0 -52.0 100.0 -76.0
000240 00 00 ae 42 00 00 c2 42 00 00 d8 c1 00 00 ac 42
       87.0 97.0 -27.0 86.0
000250 00 00 08 c2 00 00 60 c2 00 00 78 42 00 00 00 c0
       -34.0 -56.0 62.0 -2.0
000260 00 00 e0 40 00 00 00 c2 00 00 c8 42 00 00 a0 c1
       7.0 -32.0 100.0 -20.0
000270 00 00 60 41 00 00 a0 40 00 00 98 41 00 00 9e 42
       14.0 5.0 19.0 79.0
000280 00 00 ba c2 00 00 20 42 00 00 5c c2 00 00 fe 42
       -93.0 40.0 -55.0 127.0
000290 00 00 ae c2 00 00 c0 41 00 00 3c c2 00 00 30 c2
       -87.0 24.0 -47.0 -44.0
0002a0 00 00 90 c1 00 00 dc 42 00 00 50 c1 00 00 d0 41
       -18.0 110.0 -13.0 26.0
0002b0 00 00 b2 c2 00 00 88 42 00 00 ce c2 00 00 e0 c1
       -89.0 68.0 -103.0 -28.0
0002c0 00 00 14 c2 00 00 c2 42 00 00 d8 41 00 00 c6 42
       -37.0 97.0 27.0 99.0
0002d0 00 00 00 42 00 00 a4 c2 00 00 90 c1 00 00 58 c2
       32.0 -82.0 -18.0 -54.0
0002e0 00 00 8e c2 00 00 d0 41 00 00 4c 42 00 00 86 42
       -71.0 26.0 51.0 67.0
0002f0 00 00 30 41 00 00 40 c2 00 00 08 c2 00 00 5c c2
       11.0 -48.0 -34.0 -55.0
