workspace/jh_fpga_amr/src/py/models/output_estimates/vgglike_6f_6c_5re_5mp_pr0.1_quant8.onnx/intermediate_models/step_target_fps_parallelization.onnx (onnx, 2430 bytes, 1 tensors)

MatMul_0_param0 f4 [6, 32]
00000000: 0000 96c2 0000 aec2 0000 5842 0000 50c1
00000010: 0000 44c2 0000 c8c1 0000 aec2 0000 de42
00000020: 0000 f0c2 0000 7442 0000 5041 0000 1442
00000030: 0000 2041 0000 a042 0000 d042 0000 88c1
00000040: 0000 e8c2 0000 e8c1 0000 a0c2 0000 a040
00000050: 0000 4842 0000 9842 0000 f041 0000 b0c1
00000060: 0000 9e42 0000 0000 0000 58c2 0000 96c2
00000070: 0000 e642 0000 dac2 0000 8e42 0000 0040
00000080: 0000 80c2 0000 9a42 0000 a0c2 0000 acc2
00000090: 0000 da42 0000 82c2 0000 90c2 0000 be42
000000a0: 0000 bcc2 0000 a4c2 0000 40c2 0000 5842
000000b0: 0000 4040 0000 a6c2 0000 8cc2 0000 8442
000000c0: 0000 a6c2 0000 f2c2 0000 cac2 0000 fa42
000000d0: 0000 38c2 0000 d041 0000 9242 0000 b042
000000e0: 0000 0842 0000 40c0 0000 ac42 0000 e8c2
000000f0: 0000 7041 0000 e8c1 0000 7042 0000 40c0
00000100: 0000 d8c1 0000 c242 0000 44c2 0000 20c1
00000110: 0000 9ec2 0000 c6c2 0000 d042 0000 0c42
00000120: 0000 3041 0000 8ac2 0000 a4c2 0000 68c2
00000130: 0000 0040 0000 9842 0000 2442 0000 d242
00000140: 0000 4042 0000 a442 0000 f4c2 0000 9841
00000150: 0000 8040 0000 d042 0000 c842 0000 98c1
00000160: 0000 fcc2 0000 8040 0000 10c2 0000 eac2
00000170: 0000 7042 0000 9ac2 0000 ccc2 0000 c0c0
00000180: 0000 94c2 0000 5042 0000 d242 0000 d842
00000190: 0000 fec2 0000 9041 0000 5c42 0000 5c42
000001a0: 0000 ba42 0000 2cc2 0000 d0c1 0000 cc42
000001b0: 0000 c0c0 0000 4c42 0000 d2c2 0000 40c1
000001c0: 0000 aa42 0000 8e42 0000 9e42 0000 aac2
000001d0: 0000 9442 0000 2842 0000 30c2 0000 e8c2
000001e0: 0000 8841 0000 a040 0000 40c2 0000 de42
000001f0: 0000 2c42 0000 8c42 0000 cec2 0000 00c0
00000200: 0000 b8c2 0000 9e42 0000 24c2 0000 e442
00000210: 0000 a041 0000 7041 0000 e040 0000 9ec2
00000220: 0000 96c2 0000 a0c2 0000 b642 0000 a0c0
00000230: 0000 4040 0000 8cc2 0000 dc42 0000 1042
00000240: 0000 e8c1 0000 4442 0000 c242 0000 2042
00000250: 0000 8ac2 0000 88c2 0000 14c2 0000 0442
00000260: 0000 38c2 0000 80bf 0000 1c42 0000 8cc2
00000270: 0000 78c2 0000 cac2 0000 0042 0000 803f
00000280: 0000 dc42 0000 aec2 0000 98c1 0000 7042
00000290: 0000 b0c1 0000 8042 0000 f242 0000 ca42
000002a0: 0000 9042 0000 7041 0000 58c2 0000 2842
000002b0: 0000 a0c0 0000 9cc2 0000 bec2 0000 d242
000002c0: 0000 14c2 0000 0042 0000 f6c2 0000 f4c2
000002d0: 0000 5cc2 0000 7041 0000 6042 0000 e442
000002e0: 0000 00c1 0000 a040 0000 c0c2 0000 1cc2
000002f0: 0000 6042 0000 44c2 0000 c4c2 0000 00c1
-75.0 -87.0 54.0 -13.0 -49.0 -25.0 -87.0 111.0
-120.0 61.0 13.0 37.0 10.0 80.0 104.0 -17.0
-116.0 -29.0 -80.0 5.0 50.0 76.0 30.0 -22.0
79.0 0.0 -54.0 -75.0 115.0 -109.0 71.0 2.0
-64.0 77.0 -80.0 -86.0 109.0 -65.0 -72.0 95.0
-94.0 -82.0 -48.0 54.0 3.0 -83.0 -70.0 66.0
-83.0 -121.0 -101.0 125.0 -46.0 26.0 73.0 88.0
34.0 -3.0 86.0 -116.0 15.0 -29.0 60.0 -3.0
-27.0 97.0 -49.0 -10.0 -79.0 -99.0 104.0 35.0
11.0 -69.0 -82.0 -58.0 2.0 76.0 41.0 105.0
48.0 82.0 -122.0 19.0 4.0 104.0 100.0 -19.0
-126.0 4.0 -36.0 -117.0 60.0 -77.0 -102.0 -6.0
-74.0 52.0 105.0 108.0 -127.0 18.0 55.0 55.0
93.0 -43.0 -26.0 102.0 -6.0 51.0 -105.0 -12.0
85.0 71.0 79.0 -85.0 74.0 42.0 -44.0 -116.0
17.0 5.0 -48.0 111.0 43.0 70.0 -103.0 -2.0
-92.0 79.0 -41.0 114.0 20.0 15.0 7.0 -79.0
-75.0 -80.0 91.0 -5.0 3.0 -70.0 110.0 36.0
-29.0 49.0 97.0 40.0 -69.0 -68.0 -37.0 33.0
-46.0 -1.0 39.0 -70.0 -62.0 -101.0 32.0 1.0
110.0 -87.0 -19.0 60.0 -22.0 64.0 121.0 101.0
72.0 15.0 -54.0 42.0 -5.0 -78.0 -95.0 105.0
-37.0 32.0 -123.0 -122.0 -55.0 15.0 56.0 114.0
-8.0 5.0 -96.0 -39.0 56.0 -49.0 -98.0 -8.0
